mukhanov_phase2/models/drive-download-20250708T094644Z-1-001/pinn_k004.pt (torch, 20060 bytes, 5 tensors)

net.0.weight f4 [64, 1]
000000 d0 80 e8 3d f3 94 84 be 83 0d f3 bd ee cb 83 be
       0.11352694 -0.2589489 -0.118678115 -0.25741524
000010 52 a0 04 3e 15 1e aa 3e 65 14 6b 3e 21 ba 48 be
       0.12951782 0.33226076 0.22956999 -0.19602253
000020 e1 35 98 bd 05 93 11 be 8f 53 10 be 9a 01 a5 bd
       -0.074321516 -0.1421624 -0.14094375 -0.08056946
000030 3d 78 9c 3e 4d 70 c9 3d a8 27 3f 3e 8b 7a 30 be
       0.30560485 0.09835873 0.18667471 -0.17234246
000040 c3 55 3b be 69 b4 83 3e 9e d7 a4 bd 98 28 60 be
       -0.18294434 0.2572358 -0.08048938 -0.21890485
000050 b5 53 ca 3d 4b ef 86 3e de 78 96 be e9 27 81 be
       0.09879247 0.2635444 -0.2938909 -0.25225762
000060 f0 85 c4 bd 44 53 5c 3e 83 87 a2 be 0c d6 38 be
       -0.09595859 0.21516138 -0.31744012 -0.18050402
000070 41 2e a7 bd 28 bf 99 bd cd f3 e0 3c c5 ce 9b be
       -0.08163119 -0.07507163 0.027460003 -0.3043119
000080 84 37 9f bc 3b 10 1e be 05 d1 b0 be 4e d3 38 3e
       -0.019435652 -0.15435879 -0.3453447 0.18049356
000090 2c 1b d9 bd 22 ff c7 3d ad 13 1a be 67 ee 15 bc
       -0.10600886 0.097654596 -0.15046568 -0.009151078
0000a0 1c 34 8f 3d 04 c2 41 3e 65 85 e1 bd 42 14 52 3e
       0.06992361 0.18921667 -0.11011771 0.2051554
0000b0 9a 44 83 be 2c af a1 be b4 c0 0b bc bb 2d 76 bd
       -0.25638276 -0.31578958 -0.008529831 -0.060102206
0000c0 06 b4 06 3e 67 c7 20 3e f2 7e 1f be 61 cd 40 3e
       0.13154611 0.15701066 -0.1557577 0.18828346
0000d0 63 c3 32 bd ce e3 22 3e 29 17 0c be e6 14 9b 3e
       -0.043643367 0.15907213 -0.1368071 0.30289382
0000e0 d7 24 21 3d 14 fc 99 be 9c cd 3f 3e 34 f8 17 3e
       0.039341774 -0.30075133 0.18730778 0.14840776
0000f0 96 f1 80 3e ed b8 99 be 3d 72 e4 3c cd a4 59 3e
       0.25184315 -0.300239 0.027886504 0.21254273

net.0.bias f4 [64]
000000 8f d2 23 3a 30 73 9b bc 91 e7 a4 3c 96 72 13 bc
       0.0006249332 -0.018975824 0.02012995 -0.008999487
000010 11 e0 ae 3c 5b 53 b3 3d 3f bd 07 3c db 24 94 3b
       0.021347078 0.08756133 0.008284866 0.004520995
000020 3d 46 06 3c d4 90 b2 39 f9 a1 c6 3c 7d a5 39 3c
       0.008195457 0.0003405871 0.024247156 0.011330959
000030 a0 33 39 3d e0 59 bc 3c d5 57 4a 3d d7 7c b9 3b
       0.04521525 0.022992074 0.04940017 0.005660634
000040 aa d4 38 3c 9a f8 b7 3c ae cb 6a 3a 6d db 1e 3c
       0.011281172 0.02245741 0.0008956742 0.00969587
000050 7e cd 46 3c e5 6e 44 bb 21 8d 85 3c a3 83 33 38
       0.012133954 -0.0029973325 0.016302647 4.2799522e-05
000060 57 b9 c1 3c 33 5f e4 3a 54 e4 61 3c 34 9d 77 bc
       0.023647947 0.0017423391 0.013787348 -0.015113164
000070 29 a1 3b 3c 83 1e a0 3c db fb 91 bc 96 d6 17 bb
       0.011451998 0.0195458 -0.01782029 -0.0023168675
000080 7b e1 9b 3c 21 4a 0e 3c 76 e3 77 bc 2a 8b 3c 3b
       0.019028416 0.008684666 -0.0151299145 0.0028769472
000090 da d0 23 3c 51 96 6d 3c d8 8f 9a 37 29 24 b1 3b
       0.009998525 0.01450117 1.8425213e-05 0.005405922
0000a0 c5 13 3e 3b e5 d5 6e 3b bd 8a a8 3c 28 08 52 bc
       0.0029003483 0.003644341 0.020573968 -0.012819327
0000b0 8d 0f c3 3c 03 d9 ee bb f0 c2 b2 3c 8a 30 4e 3c
       0.023811126 -0.0072890534 0.021821469 0.012584815
0000c0 38 4f a2 3c 03 45 5c 3c a5 02 4a 3c c6 f1 d7 3b
       0.019813165 0.013444188 0.012329732 0.006590101
0000d0 1a 87 77 3c 01 59 cc 3c 56 fc 34 3c 48 cc ec 3c
       0.015107894 0.024944784 0.01104649 0.028906003
0000e0 fc c0 66 3c 7a 1e 2d bc 80 3d 74 3a 88 e0 7f 3c
       0.014084097 -0.010566348 0.00093170255 0.015617497
0000f0 05 9e d1 3c cd a4 85 bc af c6 7a 3c 30 5e 84 bb
       0.025588045 -0.016313935 0.015306159 -0.0040395483

net.2.weight f4 [64, 64]
000000 97 60 97 3c 79 e4 5a 3e 0c b3 11 3e bf 15 fa 3d
       0.018478675 0.21376218 0.14228457 0.12211179
000010 9d f9 fd 3d 2e 7a 1f 3e 94 2c af 3c 6d 2d 60 be
       0.124011256 0.15573952 0.021383561 -0.21892329
000020 8b 35 80 3d 71 b0 af 3d 73 d3 95 bd f8 0d 9f b9
       0.062602125 0.085785754 -0.07315721 -0.0003033725
000030 82 08 57 3e 8f a5 29 be af c5 1e be ea 38 68 be
       0.20999339 -0.16567062 -0.15505098 -0.22677961
000040 3b 76 bf 3d 13 10 a6 bd 84 d1 3c be d6 5d 2b be
       0.093487225 -0.08108535 -0.18439299 -0.16735014
000050 24 77 45 3d 23 71 4d 3d 17 cf 41 3e 5e 22 9c 3c
       0.048209324 0.050156724 0.18926655 0.019059356
000060 2e c3 fe 3c ba 54 0b 3e 34 cb 32 be a8 af 18 be
       0.031098928 0.1360654 -0.17460328 -0.14910758
000070 67 68 4c bd 36 70 27 3e 71 19 27 3e 34 9c cc bd
       -0.049904253 0.16351399 0.16318299 -0.09990731
000080 4a df 1c 3e 64 b5 5b be 34 ef 45 3e 29 97 44 bc
       0.15319553 -0.21455914 0.1932953 -0.01199893
000090 93 e1 bb bd ba 21 10 3e 6e e9 ed bc 42 a3 9b bd
       -0.09173884 0.14075366 -0.029041972 -0.07599498
0000a0 d1 40 92 bc a8 f1 32 3e 62 40 8f 3d 25 44 cd 3c
       -0.017853172 0.17474997 0.06994702 0.025056908
0000b0 dd 28 e8 bd 4c b1 4f be 14 35 d1 3c 85 ac ba bd
       -0.11335919 -0.20282477 0.025538005 -0.09114937
0000c0 c0 91 24 bd 07 17 d6 3d d6 e3 86 3c 3d e4 9c bd
       -0.04017806 0.10453611 0.016466063 -0.076607205
0000d0 49 bc 60 3d 06 54 5d 3e dc 4c 05 3e dd 07 de bd
       0.054867063 0.21614084 0.13017601 -0.108413436
0000e0 ba 2c ea bd 61 d3 1f be a5 52 20 be 5b af 3d be
       -0.11434312 -0.15607978 -0.15656526 -0.18523924
0000f0 3e 49 5d be d7 59 01 3e 03 d3 57 bb 56 f5 e4 3d
       -0.21609971 0.12631927 -0.003293217 0.111796066
000100 6b 05 75 3e 5e f2 38 be 83 92 7c bd 7c cb d6 3d
       0.23927848 -0.18061206 -0.061663162 0.1048803
000110 7f fc 35 3e df 82 72 3d 2f 65 d2 3d e3 f9 64 be
       0.17772101 0.05920684 0.102732055 -0.22360949
000120 e0 92 6b be 51 1a 37 be 0a b4 c9 3d e4 8c 86 bd
       -0.23005247 -0.17881133 0.09848793 -0.065698415
000130 fc 39 c2 3d 5a d6 15 3e cc 9a a3 3e 3f 7f 4d 3d
       0.09483716 0.1463255 0.31954038 0.05017018
000140 1f d9 cc bd 2f a0 4f 3e cd 73 ae be 64 1f 88 bd
       -0.1000235 0.20275949 -0.34072724 -0.06646612
000150 fb c2 5e 3e 04 80 28 be 72 f9 ca 3d f6 bd 3e bd
       0.21754067 -0.16455084 0.09910859 -0.04656788
000160 89 e8 0b be 03 f3 1f be 66 e9 0c 3d 15 4c 17 be
       -0.13662924 -0.15620045 0.034402274 -0.14775117
000170 39 c4 47 bd ee 82 a9 3d b8 01 9d bd f2 65 04 be
       -0.048771117 0.08276926 -0.076663435 -0.12929514
000180 cb 49 3d 3e d4 ac 34 3e 48 98 fd bd a1 09 11 3e
       0.18485181 0.17644054 -0.12382561 0.1416383
000190 e2 68 f8 bc c4 90 c4 bd 8c 50 6e be ff d6 a4 bd
       -0.03032345 -0.09597924 -0.23272914 -0.0804882
0001a0 46 3a 98 bc 5b d1 c0 3c 09 f6 62 bc 56 88 26 be
       -0.018582474 0.023537328 -0.013852605 -0.16262946
0001b0 37 a1 f3 bd 9b 43 67 be 47 5a 37 3d ed 76 cf bd
       -0.11895984 -0.22584383 0.04476383 -0.10130105
0001c0 0a 3b 4e 3e b7 e9 4c 3d ab d8 9d 3d 40 09 a1 3d
       0.20139709 0.050027575 0.07707342 0.078630924
0001d0 65 27 34 3e 24 5e 7d 3e 69 4f 4c be c2 0f 3d 3e
       0.17593153 0.24742943 -0.19952168 0.18463042
0001e0 e4 45 1e 3e b1 5b 5a bd 2b c1 ed bd 1c 58 59 3d
       0.15456349 -0.0533101 -0.116091095 0.053062543
0001f0 6a db 54 3e 36 43 45 be d0 e2 9c bd 5a 86 31 be
       0.20786825 -0.1926392 -0.076604486 -0.17336407
000200 52 9c 0d 3e fb a5 69 bd e5 45 2f 3e ab 52 45 3d
       0.13829163 -0.057043057 0.17116506 0.04817454
000210 3a 76 9b 3d 9b 36 9d bd 30 8d 3c 3e d2 94 df 3b
       0.07590909 -0.07676431 0.18413234 0.0068231607
000220 f3 82 94 3c 89 74 0a bd 96 83 21 3d 87 d8 8d bc
       0.018128848 -0.033802543 0.03943213 -0.017315162
000230 2e 7c 4c be 35 71 1f be c7 ac 39 bd 9b 42 8e bd
       -0.19969246 -0.15570529 -0.04533079 -0.06946298
000240 32 d1 84 3d 1d 8b 3b bd b8 60 90 3d ca fa 45 be
       0.06485213 -0.045786966 0.07049698 -0.1933395
000250 01 75 0e 3d d9 47 0a bd 7d f1 5d bd 07 32 8f 3d
       0.034779552 -0.033759926 -0.05418538 0.06991964
000260 69 4e 53 3e 2b e8 53 be a3 75 80 3d 11 c9 31 3e
       0.2063538 -0.20694034 0.062724374 0.17361857
000270 ad 3d 18 3e 8f c5 bc 3d 12 06 17 3e f9 00 ba bc
       0.14867277 0.09217369 0.1474841 -0.022705542
000280 ac 89 2f be b3 5c e2 bb 1f 26 38 3e dd 99 8f 3d
       -0.17142361 -0.0069080233 0.17983292 0.07011769
000290 e4 58 05 be 79 fe 6f be e4 86 40 3e 31 7a f2 bd
       -0.1302219 -0.23436917 0.18801457 -0.118397124
0002a0 d3 ee e4 3d a1 ef c4 bd 1d e5 01 3d 74 cc f2 3c
       0.111783646 -0.09616018 0.03171264 0.029638506
0002b0 6b 70 43 bc 1a 78 f1 bc 59 d9 23 3e 9d 61 07 3d
       -0.011928658 -0.029476214 0.1600088 0.033052076
0002c0 e4 0b d1 bd 31 44 19 3e c6 18 c8 bd b3 05 e7 bd
       -0.10207346 0.14967419 -0.0977035 -0.11280384
0002d0 e0 4b 08 3e 4d 3b 0f bc 01 c1 17 3d 98 cc 6d bc
       0.13310194 -0.008742166 0.037049297 -0.014514111
0002e0 43 c7 d6 bd 70 55 d1 bd 91 3b 05 3e 32 6e 4e 3e
       -0.10487225 -0.10221374 0.13011004 0.20159224
0002f0 c4 9a 1e be a8 e2 f1 bd 40 d5 bc 3c f2 9f 29 3e
       -0.15488726 -0.118108094 0.023050904 0.1656492
000300 49 74 56 bd 64 34 4d be db c7 0a be 72 6a a0 bd
       -0.052356992 -0.20039517 -0.13552801 -0.07832803
000310 eb ce 27 3d ad 5c f8 bc 8a 58 8e bc d9 07 b6 3d
       0.040968817 -0.030317629 -0.017376203 0.088882156
000320 03 f3 34 3e 7e 53 64 3e 89 40 e1 3d a4 61 0b 3d
       0.17670827 0.22297475 0.10998637 0.034028664
000330 91 95 5d bb fb 31 4f be 11 a5 9d bd a7 5c 07 3d
       -0.0033811072 -0.2023391 -0.076974995 0.033047345
000340 b2 6b 1a 3e 81 18 50 3e 1b e3 8c 3e 90 5e 15 be
       0.15080145 0.20321847 0.27517018 -0.14586854
000350 ee 75 08 b9 28 ee 24 be 24 e7 3a 3e 39 7c 04 3e
       -0.00013013903 -0.16106474 0.18252236 0.12938012
000360 5e b3 0d 3e fe c7 22 3e f3 5f a7 3d 1c 8b bf 3c
       0.13837954 0.15896603 0.08172598 0.023381762
000370 69 74 0e be 3e 02 1d 3e 90 2c da bd 79 0f 12 bc
       -0.13911594 0.15332887 -0.10653031 -0.008914822
000380 d7 34 8a bd 40 db 14 3e 4f ff 27 be 7e 6b bc bd
       -0.0674836 0.14536762 -0.16405986 -0.0920019
000390 f2 8b f3 bd 0a c4 b5 bd dc 2a 1b be 1b e5 3c be
       -0.11891927 -0.08875282 -0.15153068 -0.18446772
0003a0 d0 b5 a5 bb a7 e9 1a be d7 5d 91 bd f5 86 96 bd
       -0.005057074 -0.15128194 -0.07097977 -0.0734996
0003b0 f1 d1 81 bc 3e 2e 25 be 4b aa 16 3d cd 0e 20 be
       -0.015847178 -0.16130921 0.036783498 -0.15630646
0003c0 90 28 38 be 02 e5 34 3e 3a b8 84 bd 50 86 4e be
       -0.17984223 0.17665485 -0.06480451 -0.20168424
0003d0 20 68 58 3d 3e 79 00 3e 85 0e c4 bc c3 c8 83 3d
       0.052833676 0.1254625 -0.023932705 0.06434777
0003e0 2a 8a 9a bd 15 1e 59 3d d9 63 34 be 24 22 05 3e
       -0.07545884 0.053007204 -0.17616214 0.13001305
0003f0 82 dc 8b 3c 06 53 d7 3d d3 16 0e 3d ea 03 49 bd
       0.01707292 0.10513882 0.034689736 -0.049076

net.2.bias f4 [64]
000000 30 08 4b 3c 3a cc c5 3c 64 1a 8e 3b ec fb 87 3b
       0.012392089 0.024145234 0.004336642 0.0041499045
000010 36 84 76 3b 05 eb 0c bb e3 93 6d 3c 04 0f 7c 3c
       0.0037615425 -0.0021502387 0.014500591 0.015384439
000020 50 6c bd 3c d4 61 97 3b 83 59 7a 3c 4d aa b6 3a
       0.023122936 0.0046198163 0.01528013 0.0013936252
000030 73 09 60 3c fe 03 3c 3c fd a1 82 3c d5 94 88 3c
       0.013674128 0.011475561 0.015946383 0.016672531
000040 d7 17 48 3c 82 9a 3f 3c c6 9f 58 3c ab 15 e8 3b
       0.012212715 0.011694552 0.013221687 0.007082661
000050 96 b7 64 3c d4 82 95 3b ad 4d 75 3c 99 59 de 3b
       0.013959786 0.004562715 0.014972133 0.006785583
000060 60 27 62 3c e7 1d aa 3b 6c 77 09 3c a8 89 68 3c
       0.013803333 0.005191553 0.008390289 0.014192976
000070 2f 7e 88 3c 44 48 17 3c ad c7 66 3c 55 63 61 3c
       0.016661732 0.009233538 0.014085692 0.013756593
000080 d2 6d 64 3c 90 d3 52 3c 1a b8 d3 3b 02 8f 86 3c
       0.013942199 0.012867823 0.0064611556 0.016425613
000090 62 8e 2b 3d 1f a0 95 3b 51 32 27 3c ab f2 c6 3b
       0.041883834 0.004566207 0.010204867 0.0060714087
0000a0 c8 c7 88 3b 1f d9 44 3d 6f 86 50 3c 5e 96 7d 3b
       0.0041742064 0.048058625 0.012727364 0.0038694362
0000b0 24 9a b9 3b ad 45 99 bc b0 8c e2 3b 65 5e 5a 3c
       0.005664127 -0.018709982 0.006913744 0.0133281695
0000c0 79 bf 73 3c 88 0f 81 3c 02 9f 7c 3c fb f1 5f 3c
       0.014877194 0.015754476 0.01541877 0.0136685325
0000d0 76 4b 7a 3c 43 13 8c 3b bc d0 c7 3b 5c 6b 28 3c
       0.01527678 0.004274757 0.006097881 0.010279503
0000e0 f5 f3 6f 3b df 2d 62 3c 9f d2 80 3c 2e ad 07 3c
       0.0036613916 0.013804882 0.015725432 0.008281035
0000f0 c9 75 b2 bc b9 b4 79 3c 80 d7 35 3c 17 f1 ad 3b
       -0.02178468 0.015240842 0.0110987425 0.005308281

net.4.weight f4 [1, 64]
000000 e8 e0 83 3d eb d5 8d be 87 62 1f be 1a 77 31 be
       0.06439382 -0.2770227 -0.15564929 -0.1733059
000010 70 43 91 be d6 6b ba 3d e2 c5 0d 3e 29 8f da 3d
       -0.28371763 0.09102599 0.13845018 0.10671837
000020 93 79 90 bd ac 89 d4 bd 41 e8 8d 3d 30 f0 f9 bb
       -0.070544384 -0.10377821 0.069290645 -0.0076275095
000030 0d a1 1b 3d 77 fe 52 3e ea 57 8c 3e 40 e1 7e 3e
       0.037995387 0.20604883 0.27410823 0.24890614
000040 a2 fc 83 3e 8c 7d 42 3e b3 66 77 be 33 86 4b be
       0.2577868 0.18993205 -0.2416027 -0.19875412
000050 96 ba 99 3c f1 27 85 be 90 e3 2e 3d 5a cf 61 be
       0.018765729 -0.26007035 0.04269749 -0.22051755
000060 d8 6c 20 be aa f2 b4 bd db 3d 8b bc 13 b6 0d 3d
       -0.1566652 -0.08835347 -0.016997268 0.034597468
000070 e6 f9 5c 3e f5 99 82 bd 13 4b 6a 3a 9d 39 37 3c
       0.21579704 -0.06377021 0.00089375785 0.01118317
000080 3f c6 aa 3c cf bc 67 3d 17 13 86 be 7f 01 92 3e
       0.020846484 0.056576546 -0.2618644 0.28516766
000090 73 69 67 be 6d 92 9d bd 81 7a 8e be b6 e1 88 be
       -0.2259882 -0.07693944 -0.27827838 -0.26734704
0000a0 06 7c 30 be 93 d9 1e be 6d e0 4c 3e 4b 06 42 be
       -0.17234811 -0.15512685 0.20007487 -0.18947713
0000b0 24 e6 ce bc 2b 91 90 3d 1a 4d 7e be b2 97 c0 3d
       -0.025256224 0.070589386 -0.248341 0.094039336
0000c0 b5 c7 c7 3d 85 9a df 3d af be 6c 3d 45 ba 1a 3e
       0.09754888 0.10918144 0.057799038 0.15110119
0000d0 15 47 d0 3d 46 80 c5 bd 7c 23 83 3c ef 62 fc bc
       0.10169808 -0.09643607 0.016008131 -0.030808894
0000e0 06 d9 c4 bd 10 85 0b 3d 7c 9d 6d 3e d8 87 0f bd
       -0.096117064 0.034062445 0.23204607 -0.03504166
0000f0 45 ec 08 3e f7 4e 6e 3e e6 3c 8a bd 1c c9 41 be
       0.1337138 0.2327231 -0.06749897 -0.18924373
