mukhanov_phase2/models/drive-download-20250708T094644Z-1-001/pinn_k009.pt (torch, 20060 bytes, 5 tensors)

net.0.weight f4 [64, 1]
00000000: 79f1 07be f56e e7bb 8f18 e63d e24f 1f3d
00000010: 52de 7cbe 4e90 da3d d6f3 a33d 1f8c b1bd
00000020: d102 883e 9479 37bd 91a7 613e eae7 723e
00000030: c354 623d 1256 44be 89c4 1fbe b3b1 77bd
00000040: dcb5 73be 7fe5 983e 1365 ff3d 0cd0 f93d
00000050: 20be 3b3d e8a0 203e 5cf0 9c3d d883 34be
00000060: 68b7 843d 4ca9 5abe ece8 f63d fa68 fcb9
00000070: 1c6c 76be 125b 6c3c 3bf2 823e fd82 863e
00000080: 8517 52be 9283 7fbe 5afc 313e 9ddb 66be
00000090: f950 633e d400 c53d 57f1 a1bd 485c cebd
000000a0: 53b6 983e 13fa 2c3e 582b 533d 6108 41bd
000000b0: 95e3 323e 1bc8 9c3d 5726 14be 533f 713d
000000c0: 5393 11be 5d1f 313e 5205 633e 5a49 773e
000000d0: 3e8b 98bc d5c8 8c3d aee9 f7bd 6b9b 213e
000000e0: ea31 843e 1942 a3bd a14b e33c c254 283e
000000f0: 25e1 10ba ab14 1e3e aee1 69be 9083 adbd
-0.13275708 -0.0070627877 0.11235153 0.03889454 -0.24694183 0.10672055 0.080054924 -0.08669304
0.2656465 -0.04479368 0.22036578 0.2372128 0.055256616 -0.19173458 -0.15602316 -0.0604722
-0.23799843 0.29862592 0.1247045 0.12197885 0.045835614 0.15686381 0.076630324 -0.1762842
0.064802945 -0.21353644 0.12056145 -0.000481434 -0.24064678 0.01442601 0.25575432 0.2627181
-0.20516784 -0.24952534 0.1738142 -0.22544713 0.22198857 0.096192986 -0.0790736 -0.10076195
0.29826602 0.1689227 0.051555008 -0.04712713 0.17469628 0.076553546 -0.1446775 0.05889828
-0.14216356 0.1729712 0.22169998 0.24149075 -0.018621083 0.06874243 -0.12105118 0.15781944
0.2581933 -0.079715915 0.027746024 0.16438583 -0.0005526713 0.15437572 -0.22839996 -0.08472359

net.0.bias f4 [64]
00000000: b2a8 5c3c abf5 7f3a 8acd 2e3c b650 eb3b
00000010: d3ec 003c 3ea1 f43b 0a38 e83b a405 593c
00000020: b322 323c bd14 3f3c cc09 973b 327f 073c
00000030: fa6c f23b 30aa 053c 8fe5 373c 4552 1b3b
00000040: b7d5 183c 3d0e 153c f0c8 2b3c fddf e93b
00000050: abda db3b a574 f83b 16d1 ea3b 6d7d 4f3c
00000060: 65f7 383c cbcb 0e3c 06df fc3b bd6c 143b
00000070: 4255 053c a9e5 60bc 8ff1 2e3c 3b8c 1c3c
00000080: 18ae 133c cdca 0c3c ba0d cd3b 27d9 353c
00000090: d82a 2b3c 093d f73b 7f4b 463c e657 fb3b
000000a0: e69d 103c 07ff 423c ccdd 003b db1c 4e3c
000000b0: 3f2c 343c 9167 e63b c337 803c 7ccf f53b
000000c0: 4a3a 493c 1baa 353c 130e 093c 1bb8 fc3b
000000d0: eba3 f63b a7fd 353c d1e0 283c ba50 3a3c
000000e0: 06b2 123c e025 523c 547a bc3b 7c2d 333c
000000f0: 234a 013c 003c 9e3c 9535 0d3c 81f7 3f3c
0.0134679545 0.00097640854 0.0106691215 0.0071812524 0.007868963 0.0074655106 0.0070867585 0.013245974
0.010872531 0.011662659 0.004609322 0.008270072 0.007398245 0.008158252 0.011224165 0.002370016
0.009328297 0.009097633 0.010484919 0.007137297 0.006709417 0.0075822645 0.0071660383 0.012664181
0.011289452 0.00871558 0.007717016 0.002264782 0.008138003 -0.01372663 0.010677709 0.009554918
0.009013675 0.008593273 0.00625774 0.011099136 0.010447226 0.0075451178 0.012102961 0.0076703904
0.008826708 0.011901624 0.0019663451 0.012580122 0.010996877 0.007031389 0.01565159 0.0075015407
0.012281964 0.01108792 0.008365172 0.007712377 0.0075268648 0.011107839 0.010307507 0.011371786
0.008953577 0.012826413 0.0057518873 0.010936137 0.007891211 0.01931572 0.008618732 0.011716724

net.2.weight f4 [64, 64]
00000000: bcf3 a8bd b35d 15bd eba4 2e3d 06e3 d5bd
00000010: fb1e 53be a969 89bb ceef bcbc 279a 66bd
00000020: 621b 27be a70a 6abc 85ce 013d 40c8 16bc
00000030: 3b31 4cbe 9c80 edbb 45b0 823d e9f3 61bd
00000040: fdc5 513e 4aa7 203e 5ac4 53be cab9 4b3e
00000050: e4f1 383d 4db3 013e 82e7 233e 0d87 adbd
00000060: 0b6f c7bd 06ee b93c d0bd cbbd 60e3 0c3e
00000070: f061 a2bd c74c de3d b561 acbd 5536 e83d
00000080: 23e9 973b 65fb f53d 6ce6 b5bd 25c7 04be
00000090: 3b99 513e 6a02 d7bd ecdc 183e 52f7 3c3e
000000a0: eaaf 12be e2bd 473e 776b cfbd bac4 3dbe
000000b0: 85de 0abe 90d5 ffbc 6bb5 9cbd 8e95 973d
000000c0: 616a 8f3c d8e4 c33b 7eba 0d3e f94a 4fbe
000000d0: d3d0 9dbd 5146 583e 2727 42be ce78 f73d
000000e0: 1e3c bf3d edf6 4dbe 5989 9e3d e41a 363d
000000f0: 6363 573d 9b6a e03d 04d0 0b3d fea7 0f3e
00000100: fe62 02bd fe0d f9bd ff49 173e bfbc 1e3e
00000110: 7f31 37bc c788 8bbd 8dca f5bd 7b32 213e
00000120: 1a8c cf3d ab10 d43d aaae cc3d 15bc c33d
00000130: 0900 9abd 1603 3cbe 9dd7 84bd 5a8b 42be
00000140: 16ad 02be ec61 143e 4931 443e 9849 903d
00000150: 0076 57be f226 083e 2243 48be 7efd a63d
00000160: 69dd 1d3d 5455 dbbd dbd1 693d afbd 383e
00000170: 4bc3 a1bd eede 11bd 63b5 6e3d 8283 49be
00000180: 5df0 4ebb 3739 22be 861a 413e 07f7 2c3e
00000190: 8a74 ae3d df32 9fbd 8ec4 e83d 1245 01be
000001a0: 4872 9abc 60c4 3b3d 5a2b 70bc cbbd 3d3e
000001b0: 49a7 143e 71a4 153e abba 2abe 477e 513e
000001c0: 0b4b b63d 1722 c9bd fa61 10be 28d0 003e
000001d0: e574 20bd f71c d6bc d72b 3d3e 100d 193d
000001e0: 469b 53be 64c4 d23c c3fc de3c a39b c9bd
000001f0: 0237 1c3e bacf 24be d9c2 0b3d bed6 81bc
00000200: b7fa ebbc 3f29 12be 2284 0d3e 5e68 0e3d
00000210: e11b 1e3e de2e 41be 35b9 fa3c 751a 413e
00000220: 5f21 a5bd 985f 56bb ce73 e7bd f5ee 583e
00000230: 5b14 42bd 0941 0fbe a7f2 57be 7dcb b7bd
00000240: b620 43be a658 2fbe b468 15bd 191e 543d
00000250: 3060 2dbe 1963 583e f35b 573e 17e8 07be
00000260: e651 83bd f6cd 4fbd 68e4 26bd 3c2e 4cbe
00000270: 6e41 333d 72b5 1abd e7f3 cbbc 313d 713c
00000280: e407 2ebb 8633 13be 3cc2 eebd 0742 41be
00000290: dd54 27be 0bf8 233e 5fae ee3d 2105 24be
000002a0: 9e3d 00be 102a 7dbd e14e 1fbe dcf0 253d
000002b0: 4e6a 37bd 4be1 173e 1c06 4e3e 8a69 33be
000002c0: 8ff5 f2bd f16b 23bc f3f8 05bc 7d6f 023e
000002d0: 535d 01be ed9e 4dbe 9b58 ea3c 2265 223e
000002e0: 71f9 883d 6716 ee3d ab69 e53d b9d8 8b3d
000002f0: dab2 1b3e e2b6 523e cc42 6b3d cab0 a83d
00000300: f486 3f3e 301c 1a3e cd75 57be 9e44 a4bb
00000310: eabb 36be c09c 9b3d a2ca 103e d970 c53c
00000320: ce48 06be cd1e ddbc 5014 323e a621 033e
00000330: af08 f9bd af0a 403e a2dc 41bd f4f2 f7bc
00000340: ff28 3d3e fdd6 563e f252 533e 3c87 adbd
00000350: 606e 0bbe bec7 ed3b 7868 463e 3f34 503e
00000360: 3542 be3b 507c 923c 69f9 b63b 1740 aebd
00000370: c931 23be 1e10 8ebd a9d2 36be a052 933d
00000380: fba6 4f3d 7bf6 4e3e ed72 12be 0494 ff3d
00000390: eb65 ffbd 23b7 44be 624a 123d b495 29bd
000003a0: 1153 073e 8279 883c 3a43 343d f9a6 123d
000003b0: 21b3 c7bd 9e59 00bd 5c34 d23d b05b 2f3e
000003c0: 075d 5a3e a9f0 d03d 2023 06ba 56cf 1bbe
000003d0: 29c4 5f3e 2d76 fe3c 2696 423e 6b08 00bd
000003e0: 0136 d0bd 6a09 8b3d 7c71 27be cf27 64bc
000003f0: b7a6 c53d 94b6 e1bc f0ee 33bb 85bf e8bd
-0.08249614 -0.03646631 0.042637747 -0.10443692 -0.20617287 -0.004193504 -0.023063567 -0.056299355
-0.1631904 -0.014284766 0.031691093 -0.009203017 -0.19940655 -0.0072479974 0.06381277 -0.05516425
0.20485683 0.15688816 -0.20680371 0.19895092 0.04515256 0.12666054 0.16006282 -0.084730245
-0.09737977 0.022696506 -0.09948313 0.13758612 -0.07928836 0.10854488 -0.08417074 0.11338488
0.0046359464 0.1201084 -0.0888184 -0.12966593 0.20468609 -0.10498507 0.14928025 0.1845372
-0.14324918 0.19506028 -0.10127919 -0.18532076 -0.13561447 -0.031229764 -0.0765179 0.07401572
0.01750678 0.005978208 0.13840672 -0.20243444 -0.07705846 0.21120574 -0.18960248 0.120835885
0.09337638 -0.20113726 0.07741041 0.04445924 0.052585017 0.109578334 0.034133926 0.14028928
-0.031832688 -0.12160872 0.14774321 0.15501688 -0.011181234 -0.068131976 -0.12001524 0.15741913
0.10134144 0.10354742 0.09994252 0.09557358 -0.07519538 -0.18360552 -0.064864375 -0.18998471
-0.1276134 0.14490479 0.19159426 0.07045287 -0.21041107 0.13296106 -0.19556859 0.081538185
0.03854123 -0.107096344 0.0570849 0.18041109 -0.07898577 -0.035612993 0.058278453 -0.19679072
-0.0031576373 -0.15842138 0.18857774 0.16891108 0.08518322 -0.07773375 0.11365615 -0.12624004
-0.018853322 0.045841575 -0.014658773 0.18529432 0.14516939 0.1461351 -0.1667277 0.20458327
0.08901032 -0.09820955 -0.14099875 0.12579405 -0.03917398 -0.026136858 0.18473755 0.037365973
-0.20664701 0.025728412 0.027220136 -0.098441385 0.15255359 -0.16094866 0.034121368 -0.015849467
-0.028806074 -0.14273547 0.13819936 0.0347675 0.15440322 -0.18865535 0.030605892 0.18857749
-0.08063006 -0.0032710787 -0.11301385 0.21184905 -0.047382694 -0.13989653 -0.21088658 -0.08974359
-0.19055447 -0.1712366 -0.036476806 0.051786516 -0.16931224 0.21131553 0.2103117 -0.13272129
-0.06412105 -0.05073353 -0.04074517 -0.19939512 0.04376357 -0.037770696 -0.024896575 0.014724062
-0.0026554996 -0.14375123 -0.11658141 -0.18872844 -0.16340967 0.1601259 0.116543524 -0.16017582
-0.12523505 -0.061807692 -0.15557434 0.040512905 -0.044779114 0.14832036 0.20119518 -0.17520729
-0.11863243 -0.009974466 -0.00817703 0.12737842 -0.12633257 -0.20080157 0.028606704 0.15858892
0.06688202 0.11625367 0.11201795 0.06828446 0.15204945 0.20577577 0.05743675 0.08236845
0.18703824 0.15049815 -0.21041031 -0.0050130626 -0.17845121 0.07598257 0.14139798 0.024101662
-0.1311371 -0.026992226 0.17390561 0.12805805 -0.121598594 0.18754075 -0.047329552 -0.030267216
0.1847267 0.20980449 0.2063711 -0.084730595 -0.13616323 0.007256477 0.19375789 0.2033243
0.0058062323 0.017881542 0.005583931 -0.08508318 -0.1593696 -0.06936668 -0.17853798 0.07193494
0.050696354 0.20211212 -0.14301653 0.124794036 -0.12470611 -0.19210486 0.03571547 -0.041402534
0.13215281 0.016659502 0.044009425 0.03580377 -0.09750963 -0.031335466 0.10263893 0.1712482
0.2132455 0.10202152 -0.00051169284 -0.15215811 0.21852173 0.03106221 0.1900259 -0.031258028
-0.101665504 0.06788905 -0.16351885 -0.013925507 0.09650939 -0.02755288 -0.002745565 -0.113646545

net.2.bias f4 [64]
00000000: f8e4 ec3b 53f9 473c 6309 533c 5615 403c
00000010: a576 513c 80d8 f23b af10 f93b 0f29 533c
00000020: d069 483c d081 553c 2931 f93b 52bb 403c
00000030: d028 0e3c 7925 a6ba 9ce4 523c c7df 3d3c
00000040: 209f e03b f46f 043c 08aa e73b 41e3 4d3c
00000050: c6ed 093c c40f f63b 3977 523c 2303 f33b
00000060: f793 043c 4f0a ea3b daa1 ef3b 9524 e23b
00000070: 7eda 3d3c 4fd8 ec3b 1a37 3a3c 4f91 e53b
00000080: 6d3f e63b bf05 e53b c862 e23b 8778 343c
00000090: 9ee5 fa3b 7df7 533c 9ad4 e43b dcbe 043c
000000a0: b2cc 403c ce87 f23b 6866 0a3c 88a7 543c
000000b0: 22af 533c 1df2 e83b 9314 3c3c 2b29 433c
000000c0: 7e97 e43b 32b5 553c 1e1f e63b 8df2 da3b
000000d0: 6afd 553c c23d e83b 5604 493c dfba df3b
000000e0: 1251 4b3c cfa9 2b3c 851b e53b 2067 513c
000000f0: d12a ee3b 5a2e 523c 548f 3f3c 526a f63b
0.0072294436 0.01220544 0.012880656 0.011723837 0.012784635 0.0074110627 0.007600866 0.012888207
0.012232259 0.013031438 0.0076047373 0.011763411 0.008676723 -0.0012675963 0.012871888 0.011588997
0.0068549067 0.008083332 0.00706983 0.012566389 0.008418506 0.0075092036 0.012845808 0.0074161454
0.008091918 0.007142342 0.0073129954 0.0069013336 0.011587737 0.0072279344 0.011365676 0.0070058475
0.007026604 0.0069892104 0.0069087483 0.011015064 0.007656767 0.012937424 0.006983352 0.008102145
0.011767553 0.007401443 0.008447267 0.012979396 0.012920173 0.0071089403 0.011479515 0.011911671
0.006976067 0.013043689 0.0070227524 0.0066817463 0.013060907 0.00708744 0.0122691 0.0068276967
0.012409465 0.010477497 0.006991806 0.012780935 0.0072682877 0.012828434 0.011691887 0.0075199986

net.4.weight f4 [1, 64]
00000000: fcaa 893e cbf0 29be 7cd1 0dbe e0a6 b6bc
00000010: 8af3 33bd 038c 703e 02b0 473e 00fc 85bd
00000020: 4dd0 babd 69b6 eabd e497 793e 415d 2ebd
00000030: bff5 353e f09b 8637 d315 4ebd e5ee 0cbc
00000040: 9cd5 a83d 34f6 f23d 4d78 133e ce27 24be
00000050: 3e3e 9f39 484a b33d 1c81 ecbd 0409 ac3d
00000060: c926 323e 1c23 463e 60d3 393e 4fb0 213e
00000070: 98da a3bd 5c44 093e d53d c7bd d900 033e
00000080: 71db 203e dfaa e83d c414 0c3e e997 89be
00000090: 2e7f 873e 92d2 88be 8108 7d3d a3ac 333d
000000a0: 21cc 83be b4fd 943c 2c76 a33d 1fb3 78be
000000b0: 329c 19bc b7bd 0c3e aeb5 43be b5b5 8abe
000000c0: b55b 363e b799 91be 306f 903e 1f4f fd3d
000000d0: 9513 fbbd 41bd 1a3e 639b 8dbd 649d 773e
000000e0: db07 23be 45b1 5639 2a66 183e a43d 91be
000000f0: bea8 f33d b57b 1abc 4e73 5ebd 32cf 633e
0.26888263 -0.16595761 -0.13849443 -0.02229637 -0.04393343 0.2349091 0.19500735 -0.06542206
-0.091217615 -0.11460573 0.24374348 -0.042569403 0.17769526 1.6046659e-05 -0.050313782 -0.008601879
0.08243868 0.11863366 0.1440136 -0.1603081 0.00030373217 0.087544024 -0.11548063 0.08400157
0.17397608 0.1934933 0.1814704 0.15789913 -0.08000678 0.13404983 -0.097285904 0.12793292
0.1570871 0.11360716 0.13679796 -0.2687371 0.26464218 -0.26723152 0.061775688 0.04386581
-0.25741675 0.018187381 0.07981524 -0.2428708 -0.009375619 0.13744245 -0.19112274 -0.27091756
0.17808421 -0.28437588 0.2820983 0.12368607 -0.12259594 0.15111257 -0.06914403 0.24181134
-0.15920965 0.00020474668 0.14882722 -0.2836734 0.118974194 -0.009428908 -0.054309182 0.22247007
