mukhanov_phase2/models/drive-download-20250708T094644Z-1-001/pinn_k000.pt (torch, 20060 bytes, 5 tensors)

net.0.weight f4 [64, 1]
000000 a8 6a a1 bd 96 c0 d1 bc 77 77 a8 bc eb a4 4d be
       -0.07881671 -0.025604527 -0.020564778 -0.20082442
000010 70 74 83 3e ba d8 43 be 5f 25 a2 3d 38 8a 6d be
       0.25674772 -0.19125643 0.07917284 -0.23197258
000020 c5 0d 1e 3e de 00 c9 3e e1 8b 1a be 20 03 5a 3e
       0.1543494 0.39258474 -0.15092422 0.21290255
000030 e4 cf 33 be 13 81 2f be 7a 93 fa 3d 08 0b ca be
       -0.17559773 -0.17139082 0.1223516 -0.3946154
000040 49 c9 2c be b8 8c d0 3e bb 3e 71 3e 08 6d da bd
       -0.16873659 0.4073236 0.23559086 -0.10665327
000050 f3 eb a3 3e aa 65 3c 3e 76 3b b7 3e 0a e9 bb 3e
       0.32015952 0.18398157 0.35787553 0.36701232
000060 f8 08 97 3e 58 d1 d7 be 68 79 b1 3e b1 77 02 bc
       0.2949903 -0.42151904 0.34662938 -0.007963107
000070 48 73 bf be 04 dd 61 3e dd ca ab be 5a 6b 84 bd
       -0.3739264 0.22056967 -0.3355321 -0.06465788
000080 1e fa b8 be 9a bd d5 3e 2e 5f c8 be 04 d8 05 3e
       -0.36128324 0.41746217 -0.39135116 0.13070685
000090 91 79 b2 be 66 e8 8f bd ce 94 be be 80 66 44 be
       -0.34858373 -0.07026748 -0.37222904 -0.19179726
0000a0 63 c2 d8 bd 73 6a e1 3e aa a9 a4 bc 45 5a a8 be
       -0.10583951 0.44026527 -0.020100433 -0.3288137
0000b0 e7 c7 99 be 02 0e a1 be 87 55 5e be df ed 76 be
       -0.30035326 -0.31456 -0.21712314 -0.24114178
0000c0 af 45 68 3e 56 19 d2 be 95 2c 22 3e cb 7e 10 be
       0.22682832 -0.41034955 0.15837319 -0.14110868
0000d0 02 c6 8b be b5 81 36 3e 4b 3e 06 3d fd bf fa bc
       -0.27299505 0.17822917 0.03277425 -0.030609125
0000e0 4a 13 35 be f5 16 41 be 3a fa 1b 3e de 7a a6 be
       -0.1768314 -0.18856414 0.15232173 -0.32515615
0000f0 7f b6 a3 be 24 ed 5a 3e a4 5a 06 bf 1d fe 00 be
       -0.3197517 0.21379524 -0.52482057 -0.12596937

net.0.bias f4 [64]
000000 c5 2b 3e be c1 b6 6d 3e 34 83 75 3e 04 7c 86 3e
       -0.18571384 0.23214246 0.23975831 0.2626649
000010 37 e3 03 be dd c9 89 3e 73 6d ef bd 4b 4e 80 3c
       -0.12879644 0.26911822 -0.11690798 0.015662333
000020 c8 87 0f bc bc aa 65 3d 24 90 65 3e 50 88 42 bd
       -0.0087604 0.056071028 0.22418267 -0.04749328
000030 f7 d1 7e 3e 69 b0 87 bc b4 db e9 3d 07 ab 57 3e
       0.24884783 -0.016563611 0.11418858 0.21061336
000040 50 00 5b 3e 95 c5 1b bd 20 14 35 3d 3a fd 73 3e
       0.21386838 -0.038030226 0.044208646 0.23827067
000050 b1 ce 59 be 82 f0 d0 3d aa f2 8b 3d 0f 59 04 be
       -0.21270253 0.10202123 0.06833394 -0.12924598
000060 af 80 e1 bd 4b 5e 77 3e a4 59 26 bd 6a e3 1a 3e
       -0.110108726 0.24157064 -0.04061283 0.15125814
000070 43 f3 55 3e d7 8b 2a 3e e7 d0 0b 3e 9f 95 80 bd
       0.20893578 0.16654907 0.13653909 -0.06278538
000080 c1 18 6a bd 33 7d c0 bd 42 34 5a 3e 12 8a 59 be
       -0.057152513 -0.0939888 0.21308997 -0.21244076
000090 72 55 4a 3e 41 ee 51 3e c4 ab 90 3e b3 c2 7f 3e
       0.19759157 0.20501043 0.28256047 0.24976616
0000a0 61 24 a6 bd 4c 1b a5 3c 2f 70 6b 3e af 08 da 3d
       -0.081124075 0.020154618 0.22992013 0.106461875
0000b0 52 2f a7 3d 7e 1f 92 3d 5a d1 84 3e cc 6e c8 3d
       0.081633225 0.07134913 0.25940973 0.09786758
0000c0 72 e2 10 3e 29 61 19 3e a9 34 2e be 31 a1 67 3e
       0.14148882 0.1497847 -0.17012276 0.22620083
0000d0 b5 fd 09 3d 53 b0 4d be 13 d4 14 3e 53 9c 65 be
       0.03368922 -0.20086794 0.14534025 -0.22422914
0000e0 7a 4e ef 3a 62 73 c4 bd e6 12 32 3d a7 e5 3c 3e
       0.0018257641 -0.0959232 0.043475054 0.1844698
0000f0 43 9c 54 bc 51 d6 03 3e 14 df 2c 3e 95 8e 67 3e
       -0.012976709 0.12874724 0.16881973 0.22612984

net.2.weight f4 [64, 64]
000000 a7 91 24 3e b4 87 b3 3d 01 16 cf bd 01 1f 0f 3f
       0.16071187 0.08766118 -0.10111619 0.55906683
000010 f0 01 09 3d 7d 73 63 3e 54 84 ac bd 73 7d 9b bd
       0.033449113 0.22212024 -0.08423677 -0.07592287
000020 d3 4a 99 bd 90 49 b1 bd 86 a2 a2 3e 62 ca 6b be
       -0.07484975 -0.08656609 0.3176462 -0.23026422
000030 f2 6a a3 3e 70 05 51 3d 28 73 e6 bd 46 33 91 bd
       0.3191753 0.051030576 -0.11252433 -0.07089858
000040 40 a6 02 3f bc 78 0d be 4d d6 b8 3d 51 01 c7 3e
       0.5103493 -0.13815588 0.0902525 0.38868192
000050 d1 cc 16 b8 a5 73 32 3e 98 72 2e 3e c4 aa cd bd
       -3.5953537e-05 0.17426927 0.17035902 -0.100423366
000060 81 8d 7e be 37 f2 ab 3e f0 6f c8 3d ab 32 78 bd
       -0.24858667 0.33583233 0.097869754 -0.060595196
000070 b9 8b 58 3e 77 1a 1d 3e f2 a6 6a 3d bc 47 97 3d
       0.2114705 0.15342127 0.057288118 0.07386729
000080 0f d0 4e 3e 6d 84 c1 bd 70 8f 39 3e 0c 98 fe be
       0.20196556 -0.09449086 0.18121123 -0.49725378
000090 3d 2b a6 3e 46 0d 88 3e 12 20 11 3e a8 1a f5 3e
       0.32454863 0.26572627 0.1417239 0.478719
0000a0 25 95 b5 3b 80 4b d9 bd 97 62 4c 3e ea 34 a1 3d
       0.005541461 -0.106101036 0.19959484 0.07871421
0000b0 eb 24 7f 3c 18 63 38 bd 12 7a b8 3e c7 34 0d 3e
       0.015572767 -0.04501638 0.36030632 0.13789664
0000c0 5d 26 31 bd 72 e8 81 3e b8 0e 16 bf f7 db e9 3e
       -0.043249477 0.25372654 -0.5861621 0.45675632
0000d0 ab ed 0b 3c da c1 02 bf 8e 44 df 3d 9e b5 80 3d
       0.008540551 -0.51077044 0.10901748 0.06284641
0000e0 2b 19 ca 3d 53 78 00 bd f2 59 ae 3c 68 8b 6f 3e
       0.09868082 -0.03136475 0.021283124 0.23393023
0000f0 d5 75 84 3e 3b dd 21 be cd ce 76 3e a3 86 dc 3e
       0.2587115 -0.15807049 0.24102326 0.4307147
000100 c4 dc 2f be 7c 60 00 be 10 11 fb bd 9d 23 83 3e
       -0.17174059 -0.12536806 -0.12259114 0.25613108
000110 70 00 4c bd 1c 5b 18 3e 1b e5 a4 3d 05 57 ae bd
       -0.049805105 0.14878505 0.08051511 -0.085126914
000120 88 b8 0b bd a0 75 72 3c 16 4f e2 bc 26 1b 2f 3e
       -0.03411153 0.014798552 -0.027625602 0.171002
000130 ee 70 91 3d 16 6b 12 be 74 93 2c be a7 b7 0d 3e
       0.07101618 -0.14298663 -0.16853124 0.13839589
000140 0f 87 bb bd 68 5a 1a be ce 79 c0 3d 37 82 a3 bc
       -0.0915662 -0.1507355 0.093982324 -0.019959552
000150 06 f8 de 3d 3b 7a 2f bd 4a 5e 24 3e 49 fa d2 3d
       0.108871505 -0.042841177 0.16051593 0.10301644
000160 4e 9d 9a 3c c1 7f b8 3d cf 93 2b 3e f0 b3 bb bd
       0.018873837 0.09008742 0.16755603 -0.0916518
000170 73 64 38 3c 13 c1 41 3e 12 14 86 3d 94 ff 06 3e
       0.011254418 0.18921308 0.06546797 0.13183433
000180 b7 89 df bd 36 69 85 bc 12 ac 2f 3e ca a4 c3 3d
       -0.10914939 -0.01628552 0.17155483 0.095529154
000190 46 3f ac 3d 38 d9 bb 3d c6 cb b3 bc f0 b3 71 3e
       0.08410506 0.091722906 -0.021947753 0.23603797
0001a0 0e 17 bc bc 5c 4b 60 3e 61 8a 85 3e f0 46 ce bd
       -0.022960212 0.21903747 0.26082137 -0.10072124
0001b0 d9 1f b2 3d 79 b1 0e 3e fd 45 33 3d f8 21 3b bd
       0.08697481 0.13934888 0.043767918 -0.045686692
0001c0 ba cd 99 bd 38 24 db bd 75 31 ac be cc a3 ae bd
       -0.07509942 -0.107002676 -0.33631483 -0.085273355
0001d0 30 ec b8 3d aa 88 e4 3d 75 80 67 3d 54 43 4e bd
       0.09029424 0.11158879 0.05651899 -0.050357178
0001e0 12 1d 4d bd 50 85 20 3e f8 51 00 be 0b 05 2f be
       -0.05007655 0.15675855 -0.12531269 -0.17091767
0001f0 75 2f a2 3d 4f d7 09 be 53 78 8e 3d fc 7a 83 3e
       0.07919208 -0.1346104 0.06956544 0.25679767
000200 39 7a 58 be 15 ae 7a bd b8 45 bd 3d f0 4e f7 bd
       -0.21140374 -0.061201174 0.092418134 -0.12075603
000210 ec e3 81 3e f7 4e 97 3d 9a 00 0e 3e f8 a1 af be
       0.25369203 0.07388108 0.13867417 -0.3430326
000220 b3 3e a7 3e cc ec 73 3e a7 d3 7f 3d 5a d3 cb bb
       0.32665023 0.238208 0.062457707 -0.0062202634
000230 fa e9 b3 3d f4 05 4b bd 82 5d 9a 3d 9f dd 80 be
       0.08784862 -0.049566224 0.075373664 -0.25169083
000240 76 7c a3 bd 0c b9 7a 3e c9 cb c8 3d b4 e8 c0 3c
       -0.079827234 0.24484652 0.09804494 0.023548461
000250 73 7a 42 3e 95 06 7c 3d 55 dd 8f 3e a1 15 b5 3e
       0.18992023 0.061529715 0.2809855 0.35368064
000260 14 2d ab 3e 51 87 96 be 96 95 cd 3e 35 5e 93 3c
       0.3343283 -0.29400113 0.40153188 0.017989257
000270 cf 62 32 be 4a 2e a5 3e 30 28 15 bc de 7c 02 be
       -0.17420505 0.32261878 -0.00910382 -0.12742946
000280 78 3f b5 be 09 1b 51 3e 78 75 ea bc ed 30 ac 3d
       -0.35399985 0.2042047 -0.028620467 0.08407769
000290 3e 99 24 be df 59 8c 3c f9 04 8a be b8 42 75 bd
       -0.16074082 0.017132698 -0.2695692 -0.05987808
0002a0 4e c2 fa bb 0e 24 c8 3e 57 52 7d 3e 7b 42 ef bd
       -0.0076525575 0.39090008 0.24738441 -0.11682602
0002b0 56 7d 16 bd 11 5c b1 be d9 fe 04 bd ce 3e e5 bb
       -0.036740623 -0.34640554 -0.032469604 -0.0069960123
0002c0 11 3d 8d 3e 40 4c a8 be 88 57 87 3e e2 23 b0 3d
       0.27585652 -0.32870674 0.2643397 0.08600594
0002d0 d9 ea e0 bd 8b c7 79 3e dd 67 00 bd 65 75 a1 be
       -0.10982294 0.24392526 -0.03134905 -0.31534877
0002e0 b2 67 45 bd 86 88 24 3d 95 20 01 3e c4 3a 92 bd
       -0.048194595 0.04016926 0.12610085 -0.07140115
0002f0 ed 0e 28 be 2b 0d 23 3c 72 22 a2 be b2 be 5b bd
       -0.16411944 0.00995187 -0.31666905 -0.053648658
000300 19 b7 c0 bd a8 aa 6b 3e e3 cd 34 be 30 92 3b be
       -0.09409923 0.23014319 -0.17656665 -0.18317485
000310 5a 24 5b bd cf 39 87 3d 6e 28 4f be af e7 1a 3e
       -0.053501464 0.06602823 -0.20230266 0.15127443
000320 94 91 50 ba 6d 2d 37 3e 0f a4 b1 3c 6d d3 7d bd
       -0.0007956263 0.17888422 0.021684675 -0.06196921
000330 ee d9 38 be 41 3d 01 3e 2d 2d 19 be a2 e5 11 bd
       -0.18051884 0.12621023 -0.1495864 -0.035619386
000340 36 f8 ad bc db f9 0a 3e 56 f2 3c be 7f 77 02 be
       -0.02123652 0.13571875 -0.18451819 -0.12740897
000350 69 83 1e be 43 2c 26 3e 94 1f 1c be d0 a9 fc 3c
       -0.15479816 0.16227822 -0.15246421 0.030842692
000360 89 e0 dd bd 46 bc 2b be 3f da 36 3e f1 58 86 bd
       -0.10833842 -0.1677104 0.17856692 -0.06559933
000370 5e 56 65 3d a7 f6 85 3d a0 54 05 bd 0e 9f 89 3d
       0.05599057 0.06541186 -0.032551408 0.067197904
000380 37 d8 82 bd 39 1b 4b 3d 9c f9 f9 3c 08 18 0b 3e
       -0.06388896 0.04958651 0.03051453 0.13583386
000390 52 1f f8 bc 62 74 c1 bd 39 a0 1a 3e a1 ba 20 3e
       -0.030288372 -0.094460264 0.15100183 0.15696193
0003a0 5a d0 35 bd 3d 33 e1 3d 62 22 e2 3c 48 87 83 bd
       -0.044388153 0.10996101 0.027604286 -0.06422287
0003b0 ff 2b 29 3e 9c ef 3b be b7 7f ff bd 1f e1 41 3d
       0.1652069 -0.18353122 -0.124755315 0.047333833
0003c0 95 00 3a 3e 45 eb a5 3d d0 a7 5e be 40 82 bc bc
       0.18164285 0.08101515 -0.21743703 -0.023011327
0003d0 a3 84 1a be 35 bf 58 3e e3 b2 f6 bd fb d9 0c 3e
       -0.1508966 0.2116669 -0.12045839 0.13755028
0003e0 05 b0 08 be 50 46 c5 bd a6 c6 c9 3c 38 c6 14 bc
       -0.13348396 -0.09632552 0.024630856 -0.009080462
0003f0 47 5f 1e 3e 74 2a 1e be 89 14 fa bd 61 75 8f bd
       0.15466033 -0.15445882 -0.12210948 -0.0700481

net.2.bias f4 [64]
000000 bc cc 12 3e 98 fb 39 3c e4 9e e7 3d ba df 51 bc
       0.14335912 0.0113514885 0.11309603 -0.012809688
000010 1e 79 40 3e 12 7f bb 3c e0 94 70 be ab 04 e3 bd
       0.18796203 0.02288774 -0.23494291 -0.11084875
000020 f2 a6 98 3c 92 1f 0f be 31 46 dd bb 91 ae 2a bb
       0.018634293 -0.13976887 -0.0067527522 -0.002604399
000030 83 5f f1 bd 58 cc 2b 3b 5b 08 1c be 5f 99 9f 3c
       -0.117857955 0.0026214328 -0.15237562 0.019482313
000040 0a e9 70 3e c6 ba 1f 3e 22 10 1d be 86 0c 18 bc
       0.23526397 0.15598592 -0.15338185 -0.00928033
000050 1e 03 54 3e 5a 13 c1 3d 75 e7 ba bc 88 9c d2 3d
       0.20704314 0.09427519 -0.022815445 0.10283762
000060 e5 21 2c 3e 5d 0c 10 3e 6a 47 e3 bd e1 6f ce bd
       0.16809805 0.14067216 -0.110976055 -0.10079933
000070 14 4b 94 3e 57 b2 e2 3d f6 4b 83 3d 2a 2c 03 3d
       0.2896353 0.11069172 0.06410973 0.03202454
000080 b7 8b ac 3b 80 d5 87 bc 69 43 97 bc e7 21 90 3c
       0.0052656787 -0.016581297 -0.01846476 0.01759429
000090 09 33 aa 3e 88 75 1a 3e 0c d6 4b 3e 9e a8 42 3c
       0.33242062 0.15083897 0.19905871 0.011881022
0000a0 e3 de 64 bd 3f bd 8d bc 52 15 07 3e e5 ab 83 3c
       -0.055876624 -0.017302154 0.13191727 0.016073177
0000b0 d6 0d 89 3b f6 b3 71 3e 92 b6 09 3e 73 38 84 be
       0.0041825576 0.23603806 0.13448551 -0.25824317
0000c0 3d 25 dc bd 22 5c de bb 7e 1a 5e 3e 21 bf 91 be
       -0.1074929 -0.0067858854 0.21689793 -0.28466132
0000d0 8d 9b d0 3d d4 82 2b be 44 93 6f bc ef 92 0a bd
       0.10185919 -0.16749126 -0.014622513 -0.033831533
0000e0 d4 80 ec bc 2f ed 3f 3c 56 a4 bb bc ae e4 21 3c
       -0.028870024 0.011714264 -0.02290551 0.009881182
0000f0 03 a8 21 3e fa 71 02 bc 11 52 e5 bb ab d0 60 3a
       0.15786748 -0.007961744 -0.0069983085 0.0008576016

net.4.weight f4 [1, 64]
000000 9d f8 1a 3f e7 9f bc be b6 df 25 3f fc 23 df be
       0.60535604 -0.36840746 0.6479448 -0.4358214
000010 7b 7b ed 3e a3 a6 cb be 5a 9a e2 be 19 76 df be
       0.4638327 -0.3977557 -0.44258386 -0.4364479
000020 e2 6f d4 be 76 b9 d5 be 7c 25 0b bf d3 6e ca be
       -0.4149161 -0.41743058 -0.5435407 -0.39537677
000030 0e 35 d1 be c1 d7 f7 be 5d 4d df be 3b d2 f0 be
       -0.4086079 -0.48406795 -0.4361371 -0.47035393
000040 f1 ae fa 3e ab 08 11 3f 64 0e 21 bf 59 25 d9 3e
       0.48961595 0.5665385 -0.62912583 0.42411307
000050 be ac 1e 3f 25 5c 14 3f 2b 57 0f bf 82 a9 96 be
       0.61982334 0.579531 -0.5599238 -0.294262
000060 65 8c 20 3f 6f 82 b8 3e a8 6e 2c bf a8 c5 0d bf
       0.62714225 0.36037013 -0.6735635 -0.55379725
000070 db b2 e3 3e 1f 7c 24 3f b1 e4 c0 be b0 f3 0d 3f
       0.44472393 0.64251894 -0.37674478 0.5544996
000080 e1 2c e4 3e f3 62 c2 be 5e 68 12 bf df 0d b9 3e
       0.4456549 -0.37966117 -0.571905 0.36143395
000090 2a e2 f5 3e b6 e5 b2 3e a7 a5 11 3f 0c a4 08 bf
       0.48024112 0.3494088 0.5689339 -0.53375316
0000a0 03 42 07 bf 27 4e fb be 5e dc 02 3f c8 f2 02 3f
       -0.528351 -0.49083063 0.51117504 0.51151705
0000b0 10 f7 b5 3e 12 6c e5 3e 26 ba e3 3e 45 15 eb be
       0.35540056 0.44809014 0.44477957 -0.45914665
0000c0 76 1f 0c bf 81 25 c9 3e ff 40 dc 3e 7c 50 00 bf
       -0.54735506 0.39286426 0.43018338 -0.5012281
0000d0 af 61 2a 3f 36 2b f6 be 8f 4b a8 be 54 79 bf 3e
       0.66555303 -0.48079842 -0.32870147 0.37397254
0000e0 62 46 da be 74 81 f9 be bd b0 b4 3e 82 ac b0 3e
       -0.42631823 -0.48731577 0.3529109 0.34506613
0000f0 64 e0 14 3f 44 18 f7 be 78 3c ef be 3a 94 02 bf
       0.5815489 -0.482607 -0.46725821 -0.51007426
