mukhanov_phase2/models/drive-download-20250708T094644Z-1-001/pinn_k003.pt (torch, 20060 bytes, 5 tensors)

net.0.weight f4 [64, 1]
00000000: 2f89 bebe ad68 f03e 9d60 a43e ef57 863e
00000010: f3ce 113f 28fa b4be 0427 afbe 0e29 a33e
00000020: 6f2a 23be 5fdf cc3e 509a bd3e 3c7a 99be
00000030: e42a c23e 09ed c8be d0e9 bc3e b2d5 553e
00000040: 1ddc 993e af4e 85be dc43 90be be9e f53e
00000050: 4c1a 66be 81a8 af3e 4953 e03e ccee a53e
00000060: d678 903e acec cfbe bc35 78be dcbf 4c3e
00000070: d33b fdbe 874d 963e 3aa7 fe3e 353c 43be
00000080: 3365 bfbe 9c7d b1be 327a bd3e 6e91 aebe
00000090: cab9 adbe e8f5 e23e fa8c c1be 0bd6 edbe
000000a0: 21ef 08bf 9947 47be 4535 a7be 0db0 11bf
000000b0: a923 61be 7069 a3be 6f32 fe3e 6f0b e13e
000000c0: 323f f53e 6264 8b3e 344f 7b3e 4e1c 9abe
000000d0: 0df4 843e 1f34 2e3e a383 013f 2a58 a23e
000000e0: 1c12 8e3e 9bcd 8c3e 2331 a43e 702d bbbe
000000f0: 66de 6f3e 8da4 5ebe b0cc 663e 1749 f83e
-0.37214038 0.4695486 0.3210496 0.26238963 0.56956404 -0.35347104 -0.34209454 0.3186726
-0.15934156 0.4001417 0.37031794 -0.2997607 0.37923348 -0.39243343 0.36897135 0.208823
0.30050746 -0.26036593 -0.28176773 0.47972673 -0.22470969 0.34308246 0.43813542 0.3240875
0.2821719 -0.40610254 -0.24239248 0.19995064 -0.49459705 0.29356024 0.4973696 -0.19065936
-0.37381896 -0.34666145 0.3700729 -0.3409533 -0.33930808 0.44328237 -0.3780287 -0.46452364
-0.5348988 -0.19460906 -0.3265783 -0.5690926 -0.2198626 -0.3191638 0.49647853 0.43954036
0.47899777 0.27225024 0.24541932 -0.3009972 0.25967446 0.1701207 0.50591487 0.3170789
0.2774819 0.27500615 0.32068738 -0.36558104 0.23424682 -0.21742459 0.2253902 0.48493263

net.0.bias f4 [64]
00000000: 5a2c 94bb 00f0 10bd 2480 8dba 4709 c63d
00000010: b9a6 29be e68a c4bc 74f4 18bc 395d 3c3d
00000020: 56b7 193e 8bf6 903c ee8d 2e3d afb6 363d
00000030: 4b68 a53d f25a 6fbd 4a40 e23d 6514 57bd
00000040: b460 d53b d72d 783d 3502 0c3d cf27 95bd
00000050: 1bc1 043e 9eb2 9e3d bea1 983c daf6 143c
00000060: 2838 9cbc 5a53 8dbb 26d4 3c3d 72a6 29be
00000070: 1414 363e 8792 b0bd 0bdb c5bd cf61 a53d
00000080: 3202 82bd 9ade d4bc 394a 9d3d 0a9d 4abd
00000090: 6539 26bd 74e1 a13d 817c 0cbd 7376 373d
000000a0: 0995 493e 8092 b23d 70a4 223d 705b 573e
000000b0: 7b88 e83d dcba 38bd c0e6 89bd 88ae efbb
000000c0: d24e 26bd 50b0 18bd 17f4 3f3d c4d5 8f3c
000000d0: c148 d8bd 4f2a 58bd 5765 29be eb0f 1c3e
000000e0: 6f37 58bd 5809 113d 626a 8c3d 69ee 30bd
000000f0: 63a0 03bc 96bc 9c3d 2f29 823c 6a9a 36bd
-0.0045218887 -0.03538513 -0.0010795635 0.09669738 -0.16567506 -0.023992013 -0.009335626 0.04598734
0.15011343 0.017695686 0.042615823 0.044607814 0.08076533 -0.05843634 0.110474184 -0.052509684
0.006511772 0.06059059 0.034181792 -0.072829835 0.12964289 0.07748912 0.018631812 0.009092057
-0.019069746 -0.004312915 0.046100758 -0.165674 0.17781097 -0.08621698 -0.0966092 0.08075296
-0.06348075 -0.025985051 0.076801725 -0.04946617 -0.04058208 0.0790433 -0.034298424 0.044790696
0.19685759 0.08719349 0.0397076 0.21030974 0.113541566 -0.045100078 -0.06733465 -0.007314507
-0.040602513 -0.03727752 0.04686364 0.017557986 -0.10560752 -0.052774724 -0.16542564 0.15240447
-0.05278724 0.0354093 0.068562284 -0.043196116 -0.008033845 0.076531574 0.015888778 -0.044580854

net.2.weight f4 [64, 64]
00000000: 5ab1 4bbd c5db 633e 9a39 be3d 0f70 34be
00000010: f416 753e beb9 d23d 2881 44be ef81 bb3c
00000020: 3bb3 4c3e 3128 3c3e 9a08 c1bd 30e4 4e3e
00000030: eb1a 81bd bffb 1ebe b5d2 ebbd 4844 5ebe
00000040: 917b 50be d3d6 02be b68d 4f3e b276 0f3e
00000050: ba39 993e c282 bfbd fb4e 1cbc a312 63be
00000060: 1f1c 133c 5fd4 2b3c e3d9 713e a43e 85bd
00000070: 1340 9e3c d14d 21be f311 963d e2b3 863e
00000080: 35db a1bb 86c9 153d f7c5 3fbd 5f69 6f3d
00000090: 4fde 9fbd f74c 593e 4302 4e3e 943e 44bd
000000a0: b46a 2fbe bd39 5e3e 0237 17be ef0b a8bd
000000b0: 84c7 f53d cc3f 87bc b2a1 2e3e d5d9 d2bd
000000c0: 9ca2 9f3e 89a6 7ebe 0b5e e93c ff35 3fbd
000000d0: 95ae 41be bc43 d33d b7ae b0bd 6b84 253e
000000e0: 4cb5 93be cae9 86bd 5a54 aabd 7cde 18be
000000f0: 5559 1cbe f097 9f3d 6bba 56be ec24 ba3d
00000100: 1d58 8d3d fc2a 08bb c39b a7bd 8e16 1a3e
00000110: f06d 0dbd c9c5 1ebd ea19 a0bd b59d dc3d
00000120: 61b5 953e a7b0 d3bc d6e0 6dbe 1f01 2d3e
00000130: f0a0 e93d e08f 243e 7333 8abe c5fb 2abd
00000140: 83a4 58be e7c4 643c d455 553d b8ca 0f3e
00000150: b350 b8bd 480d a2bd 0ae5 2f3e e98a 01be
00000160: d28a 963d 129a a43d 9ab3 0e3d 12fe 56bc
00000170: 3a90 45be d1ec 94bd 84d8 1d3e 1fd9 8a3e
00000180: 46b4 003e 256d 043e dff7 243c f0f6 033e
00000190: c8d3 dbbd ddfa a1bd 2110 29be f171 14be
000001a0: aa24 98be aa60 803e bc54 6f3e 93a9 b4be
000001b0: f181 45bd 76c0 afbd 0e8d 2b3e fa3c 8fbc
000001c0: 1e8e f2bd fbe8 7dbe bc8f 023e 2133 4fbd
000001d0: 96b9 87bd a1ac 81be 0983 d0bc 2675 2fbc
000001e0: bc64 b0bd 3e8e 14be 384a 7bbe cb66 453e
000001f0: e48c 47be b74d 803e e1c7 03bd 6f26 a3bd
00000200: a814 56be 39d1 57be d2d0 5f3e f0b5 01be
00000210: e8fc a3be a048 40be ce5a 3ebe 4216 163e
00000220: 6f5c d03c 1b20 353e 487d d43d d36c 55bd
00000230: a822 f7bb 417c b33d 88c7 223e 3d9b 2a3e
00000240: 5675 7b3e 5176 3c3d ba6f 89be 855f 10bd
00000250: 57b2 8ebd 6d76 503b cc1f 25be d29b d93d
00000260: 1062 5dbd d2d0 663e c596 9ebe eace c23e
00000270: 8be9 10be dd73 273e 4580 26bd 9ef6 a43d
00000280: 40b0 463e 7fba 073e a1f6 27be cd09 1f3e
00000290: bb50 a03d adcd b7bd 00df 93bd 692f 47bc
000002a0: 4818 563c 4618 fc3d 770d 983c d167 ba3b
000002b0: 3fb8 37be 46e6 24bd 6b80 8b3c 03c5 01bd
000002c0: 895d 29be 74d4 9cbd 0d5b 583e 3143 febd
000002d0: a0fa de3d 5a8c ec3d 22ac 8cbe fc83 a73d
000002e0: ec0c f3bc 9072 05be 303e b63d 4d94 51bd
000002f0: f1c1 713d 4ea4 a53d 6cff a8bc faa3 013e
00000300: 744c 113e 7924 ad3d 261c be3d bc8e 3c3d
00000310: 691e a93e 5323 9cbd 105a 6b3d 2f7a cabb
00000320: 1bf2 ce3e ea85 833d ff69 b33d ced3 edbd
00000330: 9918 62be bfef d73d 94bd 033d 1ca5 5bbe
00000340: fffd 5ebd 4af7 c23d 8b63 453e b834 bbbd
00000350: 0b28 283e c7bd 4bbe be6c e7bd a08a 01be
00000360: af4b 1dbd 100d f7bd ac53 b7bb 5267 b1be
00000370: 5d28 bdbc 600c 95bd bb08 9a3e 2318 c13d
00000380: 8181 043e 1783 9dbc 1391 2fbe 9ef0 b83d
00000390: 0a20 113e 80ab 2dbe 2d4d e13c 0704 183d
000003a0: 7e5c 8fbc 677b 1e3c c7c7 8d3d de8b bebe
000003b0: 803d b73e 57cb 973d 265e 5d3e cbd3 30bd
000003c0: 5330 433e 0efa f1bd f3cf b53c eb54 593b
000003d0: e549 b2bd 180a 063b 3ca3 ab3e 9c25 2b3d
000003e0: e16b c7bb 2ad5 e03d d410 18be cab4 2d3d
000003f0: 2346 dc3d e013 8cbd a0f1 6dbe 66e4 5d3c
-0.049729683 0.22251804 0.092883304 -0.17620872 0.23934537 0.10289334 -0.19189894 0.022889106
0.19990246 0.18374707 -0.09425469 0.20204234 -0.06303962 -0.15525721 -0.115147986 -0.21705735
-0.20359637 -0.12777261 0.20268902 0.14010122 0.29926854 -0.09351112 -0.009540315 -0.22175078
0.008978873 0.010487645 0.23618273 -0.065060884 0.019317662 -0.15752341 0.07327642 0.26309115
-0.0049394616 0.03656914 -0.046819653 0.0584501 -0.07806074 0.21220766 0.2011805 -0.04791124
-0.17130548 0.21701713 -0.14767078 -0.08205401 0.12000945 -0.016509913 0.1705387 -0.102954544
0.3117875 -0.24868216 0.028487226 -0.046682354 -0.18914254 0.10315654 -0.08627074 0.16163795
-0.28849256 -0.065875605 -0.0831687 -0.14928621 -0.15268452 0.07792652 -0.2096955 0.090890735
0.06901572 -0.0020777574 -0.08184006 0.15047666 -0.034528673 -0.03876284 -0.07817443 0.10772268
0.29239944 -0.02584107 -0.232303 0.16894959 0.114076495 0.16070509 -0.26992378 -0.041744012
-0.21156506 0.013962961 0.052083805 0.14042175 -0.08999767 -0.079126894 0.17177215 -0.12650646
0.073506966 0.08037199 0.03483925 -0.0131220985 -0.192933 -0.07271732 0.15414625 0.27118775
0.12568769 0.1293226 0.010068863 0.12887168 -0.107337534 -0.079091765 -0.16510059 -0.1449659
-0.29715472 0.2507375 0.23372167 -0.35285625 -0.048219625 -0.08581631 0.16753027 -0.01748513
-0.11843513 -0.24795906 0.12750143 -0.05058587 -0.066271946 -0.25327018 -0.025453107 -0.010709083
-0.086129636 -0.14507386 -0.24540031 0.19277494 -0.1948734 0.25059292 -0.03217304 -0.07966315
-0.20906317 -0.21075906 0.21857002 -0.1266706 -0.3202889 -0.18777704 -0.18589327 0.14656928
0.0254347 0.17688029 0.10375458 -0.052105736 -0.007541973 0.08763934 0.15896428 0.16660781
0.24556479 0.046011273 -0.26843053 -0.035247345 -0.069676094 0.0031808869 -0.16125411 0.106254235
-0.054048598 0.22540596 -0.30974403 0.38048488 -0.1415159 0.16352792 -0.04064967 0.08054851
0.19403172 0.13254736 -0.16402675 0.15531082 0.07827898 -0.089747764 -0.07220268 -0.0121573
0.013067313 0.12309317 0.018561108 0.0056886454 -0.17941378 -0.04025867 0.017029008 -0.031682026
-0.16539587 -0.0765771 0.21128483 -0.124151595 0.10887647 0.115502074 -0.27475077 0.08179471
-0.029669248 -0.13031983 0.0889858 -0.05116682 0.059022848 0.08087979 -0.020629607 0.12660208
0.14189321 0.08454222 0.09282713 0.04603456 0.33031014 -0.07623925 0.057458937 -0.006179116
0.40419087 0.064220265 0.087604515 -0.11612664 -0.22079696 0.10543775 0.032163218 -0.21449703
-0.05444145 0.09519823 0.19276254 -0.09140915 0.16421525 -0.19896613 -0.11300038 -0.12650537
-0.038402256 -0.12063038 -0.0055946913 -0.3464914 -0.023090536 -0.07277751 0.30084786 0.09428432
0.12940027 -0.019227548 -0.17145185 0.09030269 0.14172378 -0.16959953 0.02750262 0.037113216
-0.017500158 0.009672976 0.0692287 -0.37216085 0.35789108 0.07411831 0.21617946 -0.04317073
0.19061403 -0.11815272 0.022193884 0.0033162187 -0.087055005 0.0020452794 0.33522975 0.041783914
-0.006085858 0.10978158 -0.1485017 0.042408742 0.10755565 -0.06839728 -0.23236704 0.013543224

net.2.bias f4 [64]
00000000: 2644 b23d 0848 733d aa50 54bd 47e8 283e
00000010: d6b5 2e3d 8e74 2f3d 0aef 40bc 451d 223e
00000020: 5c38 163d eac7 8cbd 7db2 913d bfb2 c03d
00000030: fef0 0cbb b8c5 253e 083a 8e3d 0d32 98bc
00000040: 2986 883d 878c 603c ddf5 7fbd e39c 68bd
00000050: 5b12 91bd ea1c 47bd 74b2 41bd 9149 9f3d
00000060: 0fa6 00bc db19 14bd 2996 bbba 20ac 45be
00000070: 6886 26bd 03e0 acbd 6586 ae3a 7686 293d
00000080: d972 523d 1871 963c a239 6f3d e74d a73d
00000090: a63e 2dbd 2dcd 04be f072 caba 3ae0 96ba
000000a0: d3ad ceba 177e ba3c b08a f4bd 7713 2fbd
000000b0: 940c 003e bf45 8fbd 735e debc 7ef5 27bd
000000c0: d28f 2bbd db37 143e 24ac 5bbc eb70 903d
000000d0: f04d 833d ea16 e63d 5fb5 a63d 7341 acbc
000000e0: 87bc 1cbd c593 fa3d 32bb 073e 2dad ac3d
000000f0: b2ec cc3b bcea 863d 3cfd 13bb 62ad 943d
0.087044045 0.059394866 -0.05183474 0.16494857 0.04265388 0.042835765 -0.011775741 0.15831478
0.036674842 -0.06874068 0.07114122 0.09409093 -0.0021505947 0.16188705 0.06944662 -0.018578554
0.06666214 0.013705379 -0.062490333 -0.056790244 -0.07083579 -0.04861156 -0.047289327 0.077777036
-0.007852091 -0.03615747 -0.0014311719 -0.19303942 -0.040655524 -0.08441164 0.0013315199 0.041387998
0.05137906 0.018364474 0.058404572 0.081691556 -0.042296074 -0.12968893 -0.0015445631 -0.0011510917
-0.0015768356 0.022765202 -0.11940515 -0.042743172 0.12504798 -0.06995725 -0.027144646 -0.041005604
-0.041885205 0.14474432 -0.013407741 0.070527874 0.0641135 0.11234839 0.081400625 -0.021027302
-0.03826573 0.12235216 0.13255003 0.08431468 0.006253802 0.06587741 -0.002258136 0.07259633

net.4.weight f4 [1, 64]
00000000: 683c c2be 0dd7 e0be 85c0 e43e 89cb 77be
00000010: 60c9 e9be d6fb ddbe 1df1 ad3e 6ff6 76be
00000020: 4c59 fbbe 0ffa 973e 666b ebbe c83c 8ebe
00000030: 4518 ff3e 0714 90be 7fe5 e53e 1d64 b03e
00000040: 1861 ecbe 1600 b33e 9caf ae3e 7e5f e73e
00000050: 151e be3e a758 c43e 2ab2 d43e 4c49 d2be
00000060: c689 e33e 6374 973e 9af7 17bf 77bb 8d3e
00000070: d08c c93e 8ee9 913e d3f5 febe a16a be3e
00000080: 2984 a2be 3de3 a73e 92f7 a33e f36f c7be
00000090: b8df b33e 93e2 9d3e b0f0 933e 1d96 ddbe
000000a0: a3d5 05bf 3b2d 003f 5eb0 983e 0d33 ea3e
000000b0: c2b8 90be 3cfc 9b3e 8384 ca3e 77b3 9e3e
000000c0: 3d2c 013f f431 80be 6abe f33e 6ad5 b5be
000000d0: 9ae4 b1be b797 85be e4d0 bfbe 8723 e93e
000000e0: 092b 7b3e e3d0 81be 103a 52be 1529 adbe
000000f0: c33d a0be 0f89 e5be 8e75 a73e e726 01bf
-0.3793671 -0.4391407 0.4467813 -0.24198736 -0.4566145 -0.43356198 0.33973017 -0.24117444
-0.49091566 0.29682967 -0.45980376 -0.27780747 0.49823204 -0.2814028 0.44901654 0.3445138
-0.46167827 0.34961003 0.34118354 0.45190042 0.37132326 0.38348886 0.41542178 -0.41071546
0.4444105 0.29580984 -0.59362185 0.27682087 0.39365244 0.284985 -0.49796924 0.37190726
-0.31741455 0.32790557 0.3202482 -0.38952598 0.3513162 0.30836925 0.28894567 -0.4327859
-0.5227911 0.50069016 0.29822057 0.45742074 -0.2826596 0.30465877 0.39554223 0.30996296
0.5045813 -0.2503811 0.47606212 -0.35514385 -0.34744722 -0.26092312 -0.37464058 0.45534918
0.24528135 -0.2535468 -0.20529962 -0.33820406 -0.3129712 -0.4483113 0.32706875 -0.50449985
