mukhanov_phase2/models/drive-download-20250708T094644Z-1-001/pinn_k005.pt (torch, 20060 bytes, 5 tensors)

net.0.weight f4 [64, 1]
-0.015601912 -0.2894659 -0.16596146 0.06230641 0.061935768 0.12612043 0.073292255 0.09946788
-0.04704727 0.26523572 -0.21370469 0.17575866 0.13131993 0.2238683 -0.09066139 0.0945614
-0.28306663 0.07394263 -0.23611496 0.29054436 0.12631275 -0.05171211 0.1548149 0.26244545
0.2131665 -0.11036127 0.22925927 0.05682956 0.1674403 0.14076325 0.034189623 -0.23983009
0.28795293 0.04183354 0.13788196 -0.0654749 0.03801128 0.072027884 0.016155602 0.047955193
-0.17535298 -0.059575245 -0.11024073 0.21139126 0.29457438 -0.1532107 0.26270375 0.24025677
-0.11879934 -0.13870887 0.21293274 -0.12894729 -0.20443101 0.24016447 0.020512516 -0.1743217
-0.17620122 -0.18639097 0.022888059 -0.075623095 0.06671985 -0.28579372 -0.2809323 0.26535007
00000000: 299f 7fbc e034 94be cdf1 29be 0235 7f3d
00000010: 5cb0 7d3d b725 013e 401a 963d d1b5 cb3d
00000020: a3b4 40bd facc 873e 67d5 5abe 14fa 333e
00000030: bb78 063e bb3d 653e aeac b9bd 68a9 c13d
00000040: 1cee 90be 3c6f 973d 1fc8 71be 3bc2 943e
00000050: 2158 013e 14d0 53bd cc87 1e3e 405f 863e
00000060: 5248 5a3e 1705 e2bd f1c2 6a3e 1dc6 683d
00000070: 7875 2b3e 3e24 103e 6b0a 0c3d 0596 75be
00000080: 916e 933e a559 2b3d ee30 0d3e b417 86bd
00000090: b7b1 1b3d 5b83 933d c158 843c aa6c 443d
000000a0: bb8f 33be 2c05 74bd e4c5 e1bd f376 583e
000000b0: 74d2 963e 44e3 1cbe 1b81 863e df05 763e
000000c0: 124d f3bd b309 0ebe 0a0b 5a3e c20a 04be
000000d0: 5d56 51be aded 753e dd09 a83c 6381 32be
000000e0: 186e 34be 46dd 3ebe bd7f bb3c 48e0 9abd
000000f0: 6ba4 883d 8e53 92be 5cd6 8fbe f7db 873e

net.0.bias f4 [64]
0.015034363 0.023786636 0.0684281 0.01508143 0.011574999 0.012366587 0.010568908 0.004649325
0.011703677 0.031504795 0.05043831 0.012462232 -0.113441624 -0.036341954 0.010736812 0.0073905136
0.034561563 0.0065341466 0.023105543 -0.0026365847 0.0033903408 0.026517315 -0.0015411177 -0.06025149
-0.119766414 0.016549993 -0.03420849 0.020317482 0.0059751538 -0.011422715 -0.007501352 0.042573635
0.0015644266 0.003486352 0.010376841 0.07233018 -0.0047095427 0.009433486 0.0059067593 -0.09027862
0.010951719 0.02589073 0.028896488 0.015647432 0.0021571666 0.05081799 -0.008768789 0.011143899
0.022927621 0.05470264 0.034207 0.008187004 0.005599753 -0.005766263 0.000799288 0.01989407
0.021019908 0.021497093 0.020900626 0.008953099 0.00812687 0.011296905 0.0071113086 0.01461528
00000000: b052 763c 31dc c23c 0824 8c3d 1a18 773c
00000010: 11a5 3d3c 3a9d 4a3c 3729 2d3c 5d59 983b
00000020: c7c0 3f3c 2c0b 013d 6798 4e3d 642e 4c3c
00000030: 1554 e8bd 4ddb 14bd 74e9 2f3c 1f2c f23b
00000040: 6d90 0d3d 651c d63b d647 bd3c 8dca 2cbb
00000050: 7b30 5e3b d73a d93c 54ff c9ba 44ca 76bd
00000060: 1848 f5bd da93 873c 341e 0cbd d970 a63c
00000070: 39cb c33b 5726 3bbc e7cd f5bb b161 2e3d
00000080: 720d cd3a 487b 643b a003 2a3c d821 943d
00000090: 8252 9abb e88e 1a3c 7d8d c13b ffe3 b8bd
000000a0: d76e 333c cc18 d43c 54b8 ec3c 0b2f 803c
000000b0: 405f 0d3b 8626 503d f7aa 0fbc e694 363c
000000c0: b5d2 bb3c e00f 603d a41c 0c3d c922 063c
000000d0: 227e b73b ecf2 bcbb 4f87 513a e4f8 a23c
000000e0: f131 ac3c ac1a b03c ca37 ab3c 05b0 123c
000000f0: 9026 053c a716 393c fb05 e93b ed74 6f3c

net.2.weight f4 [64, 64]
-0.1816677 0.01424972 -0.11423801 -0.09087897 0.034641743 -0.049917713 0.132373 -0.13470009
-0.2089876 0.051259633 0.030966757 0.033318955 0.007049698 -0.06892617 -0.115722924 0.17716074
0.026997657 -0.2143482 0.013186396 -0.11576223 0.21253803 -0.03962226 -0.010393565 -0.014210056
4.7031834e-05 -0.07740103 -0.10198187 0.1550816 0.19357488 0.16274305 0.026675846 -0.08026046
0.070311144 0.0037543597 0.06568102 -0.19935724 -0.18118058 0.18002468 -0.06698026 0.1754739
-0.018725729 -0.08707067 -0.18852974 0.21493275 -0.18181385 0.20050435 -0.20778987 -0.040070493
-0.044568446 0.080139 0.18527664 -0.011886915 0.11051131 -0.105037555 0.033559937 0.05906784
-0.09501498 0.17990136 -0.20185477 -0.095273204 -0.037600633 0.12667522 -0.1216499 0.21221463
-0.046728734 0.10462785 -0.14019465 0.21517007 -0.06551027 0.1613227 -0.19811834 -0.026609888
0.15849079 0.014109896 0.130248 -0.15024596 -0.18648075 0.18466265 0.20015857 0.022447556
0.14437462 0.19528274 -0.14901334 -0.19824728 -0.05784557 0.1865903 -0.11388407 0.010514261
0.111191265 -0.1435633 -0.17394653 0.0981855 0.1007844 -0.13211913 0.06507141 -0.0126061905
0.21003278 -0.1502211 -0.1449785 -0.0016413179 -0.13489947 0.1620038 0.030388534 -0.033352736
0.075262055 -0.015559738 -0.15343305 -0.0151102245 -0.21198909 0.1525841 0.09669201 -0.0048331767
0.042182904 0.13967174 -0.038038887 -0.17237845 -0.15164195 0.15177529 0.08230195 0.050882746
0.10442102 -0.075291865 -0.15403648 -0.08518013 0.16743444 0.06209958 -0.06439497 0.03238691
0.032073814 -0.06782851 -0.106785394 -0.020268159 -0.008454594 0.1429728 -0.1655561 0.009143482
-0.044993248 0.08673856 -0.044628795 -0.16543815 0.16194141 0.049544506 0.11016999 -0.1032553
0.14678727 -0.14646594 -0.14210077 -0.1534445 0.12246865 -0.17702477 0.08083099 -0.101490036
0.1189255 0.21265092 0.071205005 0.08730688 -0.079501614 -0.043550864 -0.18099333 -0.034494214
0.102282144 -0.115427405 -0.13976151 -0.15508278 0.15880857 -0.14221317 0.15467921 -0.21137328
-0.090680435 0.19553675 0.1764235 0.12221885 0.043715827 0.076282695 0.08509714 -0.15375498
0.1530414 0.19640675 -0.21682309 0.09750353 0.14850734 0.1956221 -0.072244935 0.043653086
-0.11940738 -0.020045988 -0.077595204 -0.065141276 -0.16721815 -0.19192992 -0.13703929 -0.043386232
-0.06464161 0.1091436 0.11980414 0.09414145 -0.07969385 0.038553916 -0.11553439 -0.18309613
0.048869584 -0.011735298 0.15369229 -0.14124793 0.028585076 -0.18405844 0.12259145 -0.18998918
-0.027232504 -0.1242641 -0.12773208 0.20571043 -0.021448862 0.023269331 -0.038250644 -0.18894957
-0.009330289 0.12460682 -0.08954887 -0.10728098 0.16175272 0.0683257 0.038791895 -0.12032525
-0.17313287 0.004748095 -0.19804451 -0.038807154 -0.13319606 0.041686866 -0.12218711 -0.11497609
0.045611903 -0.054183546 0.037698712 0.18504548 0.1677455 0.009465321 0.06742307 0.20241983
0.19528556 0.06494486 0.17341837 0.16613398 0.18818745 -0.03903256 0.014149658 -0.10821069
0.12318965 -0.21515697 0.0910389 0.06565657 0.20472677 0.13805172 -0.13680571 -0.12770955
00000000: 1907 3abe a877 693c 9ef5 e9bd c11e babd
00000010: 80e4 0d3d 8476 4cbd ca8c 073e d2ee 09be
00000020: d800 56be 9ff5 513d ffad fd3c 7579 083d
00000030: 2701 e73b 2a29 8dbd 2400 edbd a069 353e
00000040: 312a dd3c 187e 5bbe c10b 583c bf14 edbd
00000050: 92a3 593e f34a 22bd c549 2abc 4bd1 68bc
00000060: 0c44 4538 6e84 9ebd dfdb d0bd b6cd 1e3e
00000070: 7e38 463e 1da6 263e 4e87 da3c 995f a4bd
00000080: 4aff 8f3d b40b 763b c583 863d 4e24 4cbe
00000090: 6787 39be 6458 383e f22c 89bd 6eaf 333e
000000a0: b366 99bc 1c52 b2bd f10d 41be 5517 5c3e
000000b0: 692d 3abe 0351 4d3e dec6 54be f520 24bd
000000c0: 678d 36bd eb1f a43d 29b9 3d3e 56c1 42bc
000000d0: c153 e23d ee1d d7bd 2576 093d 1ff1 713d
000000e0: 3797 c2bd 1038 383e 04b3 4ebe 991e c3bd
000000f0: 1f03 1abd 26b7 013e 9523 f9bd cb4e 593e
00000100: a166 3fbd 2047 d63d 308f 0fbe 8b55 5c3e
00000110: 402a 86bd c731 253e 89df 4abe fbfc d9bc
00000120: 694b 223e 312d 673c bb5f 053e 14da 19be
00000130: cff4 3ebe 3518 3d3e 5ef6 4c3e f0e3 b73c
00000140: f1d6 133e 33f8 473e f496 18be 5601 4bbe
00000150: 7aef 6cbd 8711 3f3e 0d3c e9bd 0244 2c3c
00000160: 3fb8 e33d 4202 13be 0a1f 32be 7b15 c93d
00000170: 0d68 ce3d 3d4a 07be 2944 853d 328a 4ebc
00000180: d512 573e 8fd3 19be 3e75 14be 7d21 d7ba
00000190: 1623 0abe 53e4 253e 60f1 f83c e19c 08bd
000001a0: fe22 9a3d 45ee 7ebc 8e1d 1dbe e090 77bc
000001b0: ab13 59be 023f 1c3e 7606 c63d a05f 9ebb
000001c0: fbc7 2c3d 1c06 0f3e aace 1bbd fa83 30be
000001d0: 0748 1bbe fb6a 1b3e ed8d a83d 6d6a 503d
000001e0: b0da d53d 9f32 9abd bdbb 1dbe ec72 aebd
000001f0: ef73 2b3e 215c 7e3d 83e1 83bd 23a8 043d
00000200: d55f 033d ade9 8abd 4db2 dabd 6909 a6bc
00000210: 2385 0abc 7667 123e 8a87 29be 8bce 153c
00000220: d74a 38bd fca3 b13d afcc 36bd 9e68 29be
00000230: f8d3 253e 2eef 4a3d cea0 e13d 8477 d3bd
00000240: 674f 163e 2bfb 15be dd82 11be 8e20 1dbe
00000250: d8d0 fa3d fb45 35be b88a a53d 02da cfbd
00000260: 368f f33d 2ac1 593e eed3 913d f3cd b23d
00000270: bed1 a2bd 6462 32bd 5156 39be ce49 0dbd
00000280: 4d79 d13d 3465 ecbd a41d 0fbe 05ce 1ebe
00000290: b79e 223e 54a0 11be 3a64 1e3e 3d72 58be
000002a0: aab6 b9bd c93a 483e 5da8 343e e04d fa3d
000002b0: 5e0f 333d 1a3a 9c3d 6947 ae3d f271 1dbe
000002c0: e2b6 1c3e da1e 493e df06 5ebe eeaf c73d
000002d0: 4f12 183e 2951 483e 27f5 93bd 94cd 323d
000002e0: db8b f4bd 7c37 a4bc 3cea 9ebd ca68 85bd
000002f0: 3c3b 2bbe 4789 44be 0754 0cbe c3b5 31bd
00000300: d262 84bd ae86 df3d df5b f53d 3ccd c03d
00000310: 8736 a3bd b6ea 1d3d 4b9d ecbd 8d7d 3bbe
00000320: 792b 483d 6845 40bc 8361 1d3e 4ca3 10be
00000330: 402b ea3c d179 3cbe 3a11 fb3d 868c 42be
00000340: b316 dfbc 2d7e febd 33cc 02be c1a5 523e
00000350: 86b5 afbc 539f be3c b5ac 1cbd ff7b 41be
00000360: 12de 18bc dc31 ff3d 6665 b7bd 21b6 dbbd
00000370: 81a2 253e 58ee 8b3d 40e4 1e3d 166d f6bd
00000380: be49 31be e895 9b3b 2ecc 4abe 40f4 1ebd
00000390: 8c64 08be d9bf 2a3d 3c3d fabd 9678 ebbd
000003a0: 8cd3 3a3d 91ef 5dbd f769 1a3d 907c 3d3e
000003b0: 7ac5 2b3e 6f14 1b3c 1b15 8a3d 2547 4f3e
000003c0: f0f8 473e d001 853d 9694 313e 071f 2a3e
000003d0: 36b4 403e 9be0 1fbd f8d3 673c 919d ddbd
000003e0: db4a fc3d 1c52 5cbe 9a72 ba3d f476 863d
000003f0: e5a3 513e 6e5d 0d3e cc16 0cbe 4bc6 02be

net.2.bias f4 [64]
0.0075363093 0.012584326 0.012842904 0.010981092 0.016698066 0.012729129 0.01135702 0.011975694
0.0067240708 0.011250799 0.0075242114 0.010413573 0.010419819 0.012585037 0.008867125 -0.005041846
0.008358645 0.010988117 0.00956901 0.0071404125 0.012869235 0.010109103 0.012746187 0.012861208
0.012988561 0.0038742872 0.01181521 0.008938266 0.017682279 0.0068455073 0.01786985 0.012434388
0.008526483 0.0076964605 0.009605821 0.012486805 0.012568773 0.01142523 0.011965636 0.012289692
0.040653743 0.015029926 0.0060240533 -0.0021784247 0.006094516 0.011246835 0.009275724 0.006298153
0.0074581713 0.012916094 0.011226228 0.006949578 0.009273667 0.012989327 0.008446267 0.0077495542
0.0071846903 0.012537769 0.012505062 0.012854154 0.008185551 0.008106492 0.007856456 0.02184521
00000000: 25f3 f63b 7d2e 4e3c 0b6b 523c 0aea 333c
00000010: 62ca 883c d68d 503c cb12 3a3c b435 443c
00000020: 9855 dc3b 4555 383c a98d f63b b19d 2a3c
00000030: e3b7 2a3c 7931 4e3c 6b47 113c 1236 a5bb
00000040: b3f2 083c 8107 343c 56c7 1c3c 1ffa e93b
00000050: 7cd9 523c a7a0 253c 62d5 503c d1b7 523c
00000060: f9cd 543c c1e7 7d3b 9594 413c ce71 123c
00000070: 6dda 903c 4750 e03b cb63 923c 9ab9 4b3c
00000080: a9b2 0b3c 9732 fc3b bc61 1d3c 7595 4c3c
00000090: 41ed 4d3c e330 3b3c 840b 443c b45a 493c
000000a0: 8a84 263d 1440 763c 6c65 c53b e7c3 0ebb
000000b0: 81b4 c73b a544 383c 35f9 173c bd60 ce3b
000000c0: ad63 f43b 069e 533c 37ee 373c 49b9 e33b
000000d0: 94f0 173c 30d1 543c 3662 0a3c f9ef fd3b
000000e0: 8d6d eb3b 376b 4d3c 08e2 4c3c 3b9a 523c
000000f0: b01c 063c 18d1 043c 5db8 003c baf4 b23c

net.4.weight f4 [1, 64]
-0.12930067 0.22433393 0.18649608 0.025479067 -0.18445377 0.11727572 0.10780146 0.21535636
-0.09213441 0.062985204 0.12733819 0.054324996 -0.11402234 0.24642594 -0.05712972 0.03151938
-0.16736169 -0.16455586 0.2908882 -0.2178225 0.18628587 -0.069759436 0.026599934 0.17937802
0.24766575 0.20400229 0.14758281 0.19727235 -0.08438253 -0.06990062 -0.26166928 0.17153059
-0.15927364 -0.19498612 0.11266797 0.15222016 0.22179976 0.2708001 -0.2234644 0.19071515
-0.049706057 -0.034479816 0.25645763 0.16039108 0.23721112 0.2613433 -0.017786086 0.037186228
-0.16279563 0.09215209 -0.057708967 -0.1991061 -0.21322584 0.108461075 -0.10971517 -0.27311817
-0.23876646 0.060673438 0.058013327 0.16467649 0.09263223 -0.10795895 -0.19417372 -0.059864968
00000000: 6567 04be cbb7 653e d4f8 3e3e 7ab9 d03c
00000010: 73e1 3cbe 412e f03d 03c7 dc3d 6186 5c3e
00000020: f7b0 bcbd 63fe 803d f164 023e e383 5e3d
00000030: 8b84 e9bd 1557 7c3e da00 6abd 771a 013d
00000040: dd60 2bbe 5581 28be 4cef 943e dd0c 5fbe
00000050: b9c1 3e3e 09de 8ebd 1be8 d93c dfae 373e
00000060: 179c 7d3e fae5 503e f31f 173e c301 4a3e
00000070: bfd0 acbd 0e28 8fbd 84f9 85be b7a5 2f3e
00000080: a118 23be 71aa 47be 77be e63d 9adf 1b3e
00000090: 7a1f 633e 50a6 8a3e dad3 64be d54a 433e
000000a0: 9498 4bbd b53a 0dbd 6a4e 833e 8f3d 243e
000000b0: 79e7 723e cace 853e 20b4 91bc 9650 183d
000000c0: e6b3 26be 3cba bc3d 3d60 6cbd 78e2 4bbe
000000d0: e057 5abe d720 de3d 59b2 e0bd 25d6 8bbe
000000e0: 327f 74be b684 783d 629f 6d3d f4a0 283e
000000f0: f7b5 bd3d 9519 ddbd 7ad5 46be f834 75bd
