mukhanov_phase2/models/drive-download-20250708T094644Z-1-001/pinn_k006.pt (torch, 20060 bytes, 5 tensors)

net.0.weight f4 [64, 1]
0	0xbe960b1d	-0.29305354
1	0xbe82daa6	-0.2555744
2	0x3cc171b5	0.02361379
3	0xbde94b83	-0.11391356
4	0x3e5b9074	0.21441823
5	0xbe36e8c9	-0.17862238
6	0xbe8e640c	-0.27810705
7	0x3e1dbc91	0.15403964
8	0x3e245fda	0.1605219
9	0xbe365e14	-0.17809325
10	0xbd244a07	-0.04010966
11	0x3ddfb582	0.10923292
12	0xbd23960c	-0.039938018
13	0xbe2a5546	-0.16634092
14	0x3e535826	0.20639095
15	0xbe8d513d	-0.27601042
16	0xbd9254fe	-0.07145117
17	0x3dac9297	0.08426397
18	0xbe1e7c08	-0.15477002
19	0xbe70dacd	-0.23520966
20	0xbe228432	-0.15870741
21	0xbd718a3f	-0.058969732
22	0x3d91c5c0	0.07117796
23	0xbe53b850	-0.20675778
24	0xbe31faa7	-0.17380773
25	0xbd677ce1	-0.05651558
26	0x3decc838	0.11561626
27	0xbc76003c	-0.015014704
28	0x3df01bc4	0.11724046
29	0xbc0c9e02	-0.008582594
30	0x3e25a659	0.16176738
31	0x3e4e9f14	0.20177871
32	0xbdf93969	-0.12169153
33	0xbe5bedf1	-0.21477486
34	0xbdc718e4	-0.097215444
35	0x3d4ef4b7	0.050526347
36	0xbdaa5f92	-0.0831901
37	0xbe403a6e	-0.18772289
38	0xbe635f97	-0.22204433
39	0xbe637e5e	-0.22216174
40	0x3d97c013	0.07409682
41	0x3bbbf9c2	0.0057365606
42	0xbd590b87	-0.05298951
43	0x3ddfdff8	0.109313905
44	0xbe6fd36a	-0.23420492
45	0xbe8fb801	-0.2807007
46	0xbdad3add	-0.08458493
47	0x3e36d30a	0.17853943
48	0x3e0d22ee	0.13782856
49	0x3e31e3b2	0.17372015
50	0xbc880e49	-0.016608374
51	0x3e98a316	0.29811925
52	0xbda7aae7	-0.08186894
53	0xbda16888	-0.07881266
54	0xbd19e9d0	-0.037576497
55	0xbe80fc0b	-0.25192294
56	0x3e4147ae	0.18875
57	0x3e4d5cd4	0.20054942
58	0x3d1caa0c	0.038248107
59	0xbdcac612	-0.0990106
60	0xbdbc6a30	-0.09199941
61	0xbe565626	-0.209313
62	0xbe39cfbd	-0.18145652
63	0xbc1f2147	-0.009712524

net.0.bias f4 [64]
0	0x3c272a7e	0.010203002
1	0x3cbee90c	0.023304485
2	0xbc508c91	-0.012728826
3	0x3b7a8efc	0.0038232198
4	0x3c651f35	0.013984491
5	0x3cb7c1df	0.022431312
6	0x3c1715bd	0.009221491
7	0x3c171a90	0.009222642
8	0x3c3db003	0.011577609
9	0x3c442e9a	0.011974001
10	0x3bc94793	0.0061425655
11	0x3c86014a	0.016358037
12	0x3c319e9b	0.010841037
13	0x3bb54269	0.0055315983
14	0x3cbcbc8c	0.023039125
15	0x3c83f44d	0.016107703
16	0x3c435ead	0.011924428
17	0x3c17b294	0.009258885
18	0x3bc27595	0.005934427
19	0x3ca73972	0.020413134
20	0x3e021595	0.12703545
21	0x3b825003	0.0039768233
22	0xba1f010a	-0.00060655235
23	0x3b8c68d8	0.0042849593
24	0x3c4c800b	0.0124817
25	0x3c7d98b3	0.015478301
26	0x3bf9dbab	0.0076250634
27	0x3c74f653	0.014951306
28	0x3b89c107	0.004203919
29	0x3c0c1881	0.008550764
30	0x3c2b96ba	0.010472948
31	0xbd385509	-0.04500297
32	0xbc973c22	-0.01846129
33	0x3d0d8f5b	0.034560543
34	0x3d3e65c3	0.046483766
35	0xbcee0967	-0.029057218
36	0x3c5c16f3	0.013433206
37	0x3cd05c52	0.025434647
38	0x3c810ff8	0.015754685
39	0x3cbcf4d5	0.023065964
40	0x3aca59b6	0.0015438113
41	0x3c554208	0.013016231
42	0x3c792517	0.015206597
43	0x3bd4a4fc	0.006489394
44	0x3b204c73	0.002445963
45	0x3c8b4a82	0.017003302
46	0x3cb1ebfc	0.021718971
47	0xbd8ff58b	-0.070292555
48	0x3c0bfe05	0.00854445
49	0x3c022470	0.007943258
50	0x3c9152b6	0.017739635
51	0x3b4e3be1	0.0031468796
52	0x3cebe213	0.028794324
53	0x3c651c86	0.013983851
54	0x3c9db582	0.019251589
55	0x3d321896	0.04348048
56	0xbbcbc092	-0.0062180245
57	0x3c0e08c9	0.008669087
58	0x3c76166d	0.015019995
59	0x3cacba1e	0.021084841
60	0x3c5f4bb6	0.013628891
61	0x3bed749c	0.007246567
62	0x3c1db4d9	0.009625637
63	0xbcd54059	-0.02603166

net.2.weight f4 [64, 64]
0	0x3da3f9d3	0.080066346
1	0x3e204654	0.15651828
2	0xbc41cd44	-0.011828724
3	0x3da604b7	0.08106368
4	0xbe10b958	-0.14133203
5	0x3d30fed7	0.043211784
6	0xbd1ff1b0	-0.03904885
7	0xbb64d6b2	-0.0034918007
8	0x3dbaddee	0.09124361
9	0xbe1f33cc	-0.15547103
10	0x3dd3d864	0.103440076
11	0x3d7db238	0.06193754
12	0x3d22eef9	0.039778683
13	0xbc87d8b8	-0.016582832
14	0xbdd7e9c1	-0.10542632
15	0x3d4a3992	0.04937131
16	0xbd203131	-0.039109413
17	0x3e0deb0b	0.13859193
18	0x3e4bbc51	0.19896056
19	0xbb2a8efe	-0.0026025171
20	0x3db24911	0.087053426
21	0xbe4e217e	-0.20129964
22	0xbe5add42	-0.21373466
23	0xbded2740	-0.11579752
24	0xbe45fc30	-0.19334483
25	0x3da1f5db	0.07908221
26	0xbdce47f0	-0.10072315
27	0xbc9949b2	-0.018711898
28	0xbd96b3be	-0.07358502
29	0xbdd2481c	-0.1026766
30	0xbe1ed8fb	-0.15512459
31	0x3da33e15	0.079708256
32	0x3d3b3792	0.045707293
33	0xbce55aad	-0.02799734
34	0x3db505c4	0.0883899
35	0x3dd9ea71	0.10640419
36	0xbde0f912	-0.109850064
37	0xbda76cbe	-0.08175038
38	0xbe2f982b	-0.17147891
39	0xbe3f13f6	-0.18659958
40	0x3b225e38	0.0024775397
41	0x3dff708a	0.12472637
42	0xbd8d9ce6	-0.069146916
43	0x3e1db447	0.15400802
44	0x3e513c8f	0.20433258
45	0x3cac7410	0.021051437
46	0xbe552f4d	-0.20818825
47	0x3d8d88cc	0.069108576
48	0xbe312ba2	-0.17301801
49	0xbd62ec6a	-0.055401243
50	0x3c04048b	0.008057724
51	0xbe2d14a8	-0.16902411
52	0x3c206c48	0.009791441
53	0xbe0c7d2b	-0.13719623
54	0xbe326436	-0.1742104
55	0x3e3b5c68	0.18296969
56	0x3e1910d1	0.14947821
57	0xbd47b10f	-0.04875284
58	0xbd0f362e	-0.03496378
59	0x3c802ace	0.01564541
60	0x3bdddd29	0.006770749
61	0x3e1e0ad2	0.15433815
62	0xbd958ac0	-0.07301855
63	0x3e3fb36d	0.18720789
64	0x3e053427	0.13008176
65	0x3cc3faed	0.023923362
66	0x3dadbcce	0.08483277
67	0xbdb7f721	-0.08982683
68	0x3d25824d	0.040407468
69	0xbe2683f3	-0.16261272
70	0x3d0c4093	0.03424127
71	0x3d678c6f	0.056530412
72	0xbc90fbc0	-0.017698169
73	0x3e3d2f97	0.18475185
74	0xbe370e2f	-0.17876504
75	0xbe3872bd	-0.18012519
76	0xbc8938a1	-0.016750636
77	0x3dddd76c	0.10832104
78	0x3da9fcc3	0.083001636
79	0x3e430f9e	0.19048926
80	0x3e355e81	0.17711832
81	0x3ddbe44f	0.10736906
82	0x3d210c34	0.03931828
83	0x3d653e26	0.055967472
84	0x3cde0edf	0.0271067
85	0x3c60771f	0.013700276
86	0xbd5e60ca	-0.054291524
87	0xbdf5064b	-0.11964091
88	0xbddf4b37	-0.10903018
89	0x3deb7cb5	0.11498395
90	0xbe527fcb	-0.20556562
91	0x3dcddec2	0.10052253
92	0xbdb14bed	-0.0865706
93	0x3dc7c739	0.097547956
94	0xbd90f474	-0.07077876
95	0xbcf4c3f4	-0.029878594
96	0x3bd08315	0.0063632824
97	0x3da15ecb	0.078794084
98	0xbe101d23	-0.14073615
99	0x3e1e0917	0.15433155
100	0xbda21a05	-0.07915119
101	0x3e4d0697	0.20022045
102	0xbda27050	-0.07931578
103	0x3d039d28	0.032132298
104	0x3dd53398	0.10410231
105	0xbe5a8967	-0.21341477
106	0x3e1d9412	0.15388516
107	0x3e50b9de	0.20383403
108	0x3d24575b	0.04012237
109	0xbde4a773	-0.11164751
110	0x3df9bd1a	0.121942714
111	0x3e2b9f5e	0.16760013
112	0xbe356e28	-0.17717803
113	0xbe02b1e0	-0.12763166
114	0xbe13db8f	-0.14439224
115	0x3e101b87	0.14073001
116	0x3dfde2bb	0.12396761
117	0x3d8f2b25	0.06990651
118	0x3d8437a0	0.06455922
119	0xbe42a7c1	-0.19009306
120	0xbd7cf5ec	-0.061757967
121	0xbde22052	-0.11041321
122	0x3df14feb	0.11782821
123	0x3d9b934c	0.07596454
124	0xbe33fed2	-0.17577675
125	0xbe3b9a73	-0.18320636
126	0x3cbfbb45	0.023404727
127	0xbdacdd76	-0.08440678
128	0xbe2d1432	-0.16902235
129	0xbe227366	-0.15864334
130	0x3dafe76c	0.08589062
131	0x3e38e5c2	0.18056396
132	0xbe0df5ac	-0.13863248
133	0x3e396985	0.18106659
134	0xbe373d08	-0.17894375
135	0x3d6dd5be	0.05806517
136	0xbdd7092e	-0.10499798
137	0x3e44ac72	0.19206408
138	0xbe03ce27	-0.1287161
139	0x3c7ca181	0.015419365
140	0x3e39c2cb	0.18140714
141	0xbe0e8704	-0.13918692
142	0x3e03c3c0	0.12867641
143	0x3e22f1c9	0.15912546
144	0x3d70a529	0.05875126
145	0xbe24a909	-0.16080107
146	0x3b8d0b2c	0.0043043103
147	0x3db31f5e	0.08746217
148	0x3e07758a	0.13228431
149	0x3e4c39b0	0.19943881
150	0xbe0648cf	-0.13113712
151	0x3dd851f0	0.10562503
152	0x3e1c0249	0.15235247
153	0xbd573b6a	-0.052546896
154	0xbdeecf33	-0.11660614
155	0x3ccfaacc	0.025349997
156	0x3df30b30	0.11867368
157	0x3e089c33	0.13340835
158	0x3e357e5c	0.17723984
159	0xbda06e87	-0.078335814
160	0xbdfeb0be	-0.12436055
161	0xbdde7bda	-0.108634666
162	0xbdc0d44c	-0.094154924
163	0xbe1453fe	-0.14485165
164	0xbd94f5af	-0.07273423
165	0x3e2f3bf9	0.17112722
166	0x3dae019e	0.08496402
167	0x3c9e2c60	0.019308269
168	0xbc996dda	-0.01872914
169	0x3e1ed2a8	0.15510046
170	0x3e43b4a5	0.19111879
171	0xbe18df35	-0.14928897
172	0x3e4539f4	0.19260389
173	0xbe251a13	-0.16123228
174	0xba69fd68	-0.0008926005
175	0xbdbfbec6	-0.09362559
176	0xbc3cfd88	-0.011535056
177	0x3d3cdc12	0.046108313
178	0x3dc40ede	0.09573148
179	0x3e3b39a1	0.18283702
180	0xbd61378b	-0.05498461
181	0x3dcad489	0.09903819
182	0xbd90e3b5	-0.07074682
183	0xbdb54137	-0.08850329
184	0x3ba8c829	0.005150814
185	0xbd73c1b8	-0.059510916
186	0xbe136cd9	-0.14396991
187	0xbe0744a1	-0.13209774
188	0xbe186f26	-0.1488615
189	0xbe0ebce5	-0.13939245
190	0x3d6e8813	0.05823524
191	0x3e288e4f	0.16460536
192	0xbb95e31b	-0.004574192
193	0xbc1e61b0	-0.009666845
194	0x3e187c5d	0.14891191
195	0xbe1df96b	-0.15427177
196	0xbd804cf4	-0.06264678
197	0xbd9c5ae6	-0.07634525
198	0xbd1ec3fb	-0.03876112
199	0x3e565caf	0.20933793
200	0xbd8b38aa	-0.06797917
201	0xbdcea988	-0.10090929
202	0xbdf5c054	-0.11999574
203	0x3e124da3	0.14287429
204	0xbdc82144	-0.0977197
205	0xbd80170f	-0.06254398
206	0xbdcf0d86	-0.10110001
207	0x3ca5b2c4	0.020226844
208	0x3e05fd3d	0.13084884
209	0x3de4bd04	0.11168864
210	0xbe460e40	-0.19341373
211	0x3e1f5a70	0.15561843
212	0x3e0fe0c2	0.14050582
213	0xbe189b59	-0.1490301
214	0xbe3dcaec	-0.1853444
215	0x3e13e0fc	0.14441293
216	0xbe15b3df	-0.14619397
217	0x3e356d09	0.17717375
218	0xbd17f40b	-0.037097972
219	0xbe5b6a93	-0.21427374
220	0xbd205e93	-0.039152693
221	0xbdf746b0	-0.120740294
222	0xbe51fbd9	-0.20506229
223	0xbe4c0083	-0.1992207
224	0x3e087d4a	0.13329044
225	0xbde70d01	-0.11281777
226	0xbd821f82	-0.06353666
227	0x3e1e30d6	0.15448317
228	0x3d609dd0	0.054838
229	0xbe3b4397	-0.18287502
230	0x3dc6b1fe	0.09701918
231	0x3d46ad60	0.048505187
232	0xbe3af416	-0.18257174
233	0x3e2b6408	0.16737378
234	0xbdff30b3	-0.124604605
235	0x3cfcad5c	0.030844383
236	0xbd01cba2	-0.03168834
237	0xbe1dba97	-0.1540321
238	0xbdf63d05	-0.12023357
239	0xbdc10362	-0.09424473
240	0xbd536a3a	-0.051614977
241	0xbd60331f	-0.054736253
242	0x3db4de58	0.08831471
243	0xbe308db3	-0.17241554
244	0xbd9d300e	-0.07675181
245	0x3d30a3cc	0.04312496
246	0x3cb132b4	0.021630622
247	0xbe5d85c1	-0.21633054
248	0xbdf9190b	-0.1216298
249	0xbced46ed	-0.028964484
250	0x3d19d957	0.037560787
251	0x3e48f0ea	0.19623151
252	0x3c635866	0.013876056
253	0xbe2bb4b2	-0.16768149
254	0xbba7a2aa	-0.0051158266
255	0x3e29c4e8	0.1657902

net.2.bias f4 [64]
0	0x3bb845e7	0.0056235674
1	0x3b9206f2	0.0044563944
2	0x3c80c8bb	0.015720716
3	0x3c8442f1	0.016145201
4	0x3c83cdb8	0.016089305
5	0x3c7c2ca1	0.0153915
6	0x3c83d551	0.016092928
7	0x3ba877c1	0.005141229
8	0x3c6649c3	0.014055672
9	0x3c18fc11	0.009337441
10	0x3c5ec560	0.013596863
11	0x3bc99c51	0.0061526676
12	0x3c35a54f	0.011086776
13	0x3c82eb3d	0.015981311
14	0x3bcf7e45	0.006332191
15	0x3c4f2544	0.012643162
16	0x3c82c78b	0.01596429
17	0x3c59ddb7	0.01329749
18	0x3c7a3af4	0.015272845
19	0x3c11c72b	0.008897583
20	0x3b6d5851	0.003621597
21	0x3b5bbfa9	0.0033530986
22	0x3c1982c1	0.009369553
23	0x3be451cd	0.006967759
24	0x3c8ace8a	0.016944189
25	0x3c72a482	0.0148097295
26	0x3c0109df	0.007875889
27	0x3b7f8b80	0.003899306
28	0x3ba058c3	0.0048933937
29	0x3b899c94	0.004199574
30	0x3c5a2799	0.013315105
31	0x3c4fcacf	0.012682631
32	0x3c6dbd17	0.014510415
33	0x3c65ecc1	0.014033497
34	0x3cccccd9	0.025000023
35	0x3b74ff57	0.003738364
36	0x3c841b8f	0.016126422
37	0x3b987498	0.004652571
38	0x3bc410b6	0.0059834374
39	0x3c64a248	0.0139547065
40	0x3c1bf393	0.009518522
41	0x3baa6932	0.0052005285
42	0x3c511cec	0.012763243
43	0x3c026bf7	0.007960311
44	0x3bd2b143	0.0064298226
45	0x3c4444dc	0.011979308
46	0x3bd06d19	0.0063606617
47	0x3ba6a1a9	0.0050851894
48	0x3bb23ade	0.0054391464
49	0x3c992684	0.018695123
50	0x3bacdf5a	0.005275649
51	0x3c4fbb80	0.012678981
52	0x3aa8f5df	0.0012890658
53	0x3c62204e	0.013801647
54	0x3c8246e0	0.015902936
55	0x3c809e7f	0.015700577
56	0x3c81fddc	0.01586812
57	0x3b929819	0.004473698
58	0x3b71e318	0.003690904
59	0x3c659190	0.014011756
60	0x3c7661da	0.015037978
61	0x3c561a29	0.0130677605
62	0x3bb7a434	0.0056042913
63	0x3c182c30	0.009287879

net.4.weight f4 [1, 64]
0	0x3e93405a	0.28760034
1	0x3e796685	0.24355514
2	0xbb09b292	-0.0021010977
3	0xbe821f1e	-0.25414366
4	0xbe10d96c	-0.1414544
5	0xbdd19d4c	-0.1023508
6	0xbb715d17	-0.0036829168
7	0x3e713b50	0.23557782
8	0xbe5ae8d3	-0.21377878
9	0x3e869875	0.2628819
10	0xbe894b8f	-0.2681546
11	0x3d84c126	0.06482153
12	0xbddc904d	-0.10769711
13	0xbe1a2b44	-0.15055567
14	0x3e8eda0b	0.2790073
15	0x3d963b07	0.07335477
16	0xbe0b46dc	-0.1360125
17	0xbdb4ebea	-0.088340595
18	0xbe8f3cd9	-0.2797611
19	0xbe8a7bb1	-0.27047494
20	0x3d301769	0.042991076
21	0x3d591ea8	0.05300775
22	0xbde96198	-0.11395568
23	0xbe9127c6	-0.28350657
24	0xbcaa6dba	-0.020804275
25	0xbd4d3f73	-0.050109338
26	0x3d9a5b5f	0.07536959
27	0x3d7601c5	0.06006028
28	0x3ca7b785	0.020473251
29	0x3e3416cd	0.17586823
30	0xbdcd99b9	-0.10039086
31	0xbe681d9d	-0.22667547
32	0xbe9a00c7	-0.30078718
33	0xbdbe1340	-0.092810154
34	0x3e4dceee	0.20098469
35	0x3dbdb4ec	0.09263024
36	0xbdca92ce	-0.09891282
37	0x3de99b7b	0.11406609
38	0x3e8d7139	0.27625445
39	0xbe559cc1	-0.20860578
40	0x3c9e3981	0.01931453
41	0x3e089193	0.13336782
42	0xbccfc5c6	-0.02536286
43	0x3e2b7aab	0.16746013
44	0x3e5006ce	0.20315096
45	0x3d92a39e	0.07160114
46	0x3e22f680	0.15914345
47	0x3e4de31f	0.20106171
48	0x3e84e663	0.2595702
49	0x3e1ec6ea	0.15505567
50	0x3e2350da	0.15948811
51	0x3e1cd90b	0.1531717
52	0xbd832ade	-0.06404661
53	0xbe91e091	-0.28491643
54	0xbda9d4a6	-0.082925126
55	0xbe2a921b	-0.16657297
56	0xbe7a31ec	-0.24433106
57	0x3dc09ffd	0.09405515
58	0x3d342fa2	0.04399074
59	0xbd13a517	-0.036046114
60	0xbdc5bace	-0.09654771
61	0xbd47e37e	-0.048800938
62	0x3e2b3161	0.16718055
63	0x3e8071db	0.25086865
