mukhanov_phase2/models/drive-download-20250708T094644Z-1-001/pinn_k001.pt (torch, 20060 bytes, 5 tensors)

net.0.weight f4 [64, 1]
-0.36501443 -0.3343866 0.3635907 0.48588896 0.47301304 -0.01917524 0.033367816 -0.06579784
0.41224083 -0.5160474 -0.5167427 0.1317011 -0.061332647 0.19225012 0.45260224 0.36061746
0.42064756 -0.38194257 0.449952 -0.397867 -0.50593454 -0.52507246 -0.17755857 -0.3749275
-0.41490108 -0.324335 0.47278517 0.21726403 -0.48978356 0.5015499 0.45297757 -0.07504963
0.4512065 -0.14848234 -0.38256535 -0.47658217 0.15044108 -0.35283336 0.4421533 0.3294972
-0.019423367 0.34827745 -0.4413147 0.5601286 -0.42137295 -0.24016337 -0.19717462 -0.4949784
0.4212422 -0.40765366 0.46561775 -0.5152889 0.21337464 -0.5448844 -0.4349344 -0.29551193
0.4628325 0.1987912 0.2575715 -0.30858657 0.41549838 -0.040721804 0.061383575 0.08108764
00000000: 2ce3 babe b834 abbe 8f28 ba3e 70c6 f83e
00000010: c42e f23e 6515 9dbc b1ac 083d 05c1 86bd
00000020: 3b11 d33e af1b 04bf 4049 04bf a7dc 063e
00000030: f137 7bbd 37dd 443e 7bbb e73e daa2 b83e
00000040: 1e5f d73e fa8d c3be 1c60 e63e 39b5 cbbe
00000050: ed84 01bf 266b 06bf ead1 35be 7ff6 bfbe
00000060: ea6d d4be 3d0f a6be e610 f23e 767a 5e3e
00000070: e9c4 fabe 9365 003f adec e73e 9fb3 99bd
00000080: 8a04 e73e c10b 18be 9bdf c3be 9402 f4be
00000090: 3a0d 1a3e 93a6 b4be eb61 e23e dbb3 a83e
000000a0: c11d 9fbc 6c51 b23e 00f4 e1be 9764 0f3f
000000b0: 32be d7be 63ed 75be 25e8 49be cf6d fdbe
000000c0: 0fad d73e fbb7 d0be 7365 ee3e f9e9 03bf
000000d0: e27e 5a3e 8b7d 0bbf b9af debe 574d 97be
000000e0: 62f8 ec3e ec8f 4b3e 69e0 833e 0fff 9dbe
000000f0: 34bc d43e e8cb 26bd 586d 7b3d 4711 a63d

net.0.bias f4 [64]
0.19354066 0.34946018 -0.34685993 -0.15663134 -0.35341197 0.20620611 0.16570002 -0.28272858
-0.10615838 0.21330322 0.3544192 -0.352829 0.28551275 -0.3622084 -0.25764057 -0.19283082
-0.28131405 0.36719787 -0.11684614 0.17758974 0.21103501 0.20479049 0.3242706 0.044248387
0.3355694 0.374163 -0.12045738 -0.34329236 0.17139596 -0.16918397 -0.31109843 0.31351668
-0.20931967 0.32501337 0.379881 0.21647505 0.155091 0.19154344 -0.118915446 -0.09338969
-0.23434857 -0.17389143 0.21570161 -0.26515767 0.19904515 0.36220375 0.2099123 0.3171851
-0.12947322 0.26675195 -0.29898953 0.32125655 0.16668397 0.30057976 0.38048956 -0.033542994
-0.3369181 -0.042591617 0.05802318 0.092034765 -0.058881532 0.23993291 0.20309821 -0.35629684
00000000: 862f 463e 72ec b23e a097 b1be f763 20be
00000010: 6af2 b4be b227 533e 44ad 293e cdc1 90be
00000020: 9169 d9bd 296c 5a3e 6f76 b53e 01a6 b4be
00000030: ba2e 923e 6173 b9be 77e9 83be 7175 45be
00000040: 6508 90be 5c01 bc3e 074d efbd 16da 353e
00000050: 9019 583e 99b4 513e cc06 a63e cc3d 353d
00000060: c1cf ab3e 4b92 bf3e 5cb2 f6bd 04c4 afbe
00000070: 6c82 2f3e 903e 2dbe 4b48 9fbe 4285 a03e
00000080: e557 56be 2768 a63e c37f c23e a3ab 5d3e
00000090: 2dd0 1e3e f723 443e f189 f3bd 1843 bfbd
000000a0: 12f9 6fbe 9810 32be e2e0 5c3e bfc2 87be
000000b0: 7ed2 4b3e c572 b93e 40f3 563e 1666 a23e
000000c0: a194 04be b693 883e 2815 99be bd7b a43e
000000d0: 34af 2a3e 97e5 993e 87cf c23e 6164 09bd
000000e0: 8780 acbe 8c74 2ebd b7a9 6d3d b97c bc3d
000000f0: c32d 71bd f9b0 753e faf8 4f3e 8a6c b6be

net.2.weight f4 [64, 64]
0.005625596 -0.49421725 0.37052014 0.21684411 0.054911718 -0.31079257 -0.29466558 0.1121905
-0.04799607 -0.03623118 -0.1569559 0.2546432 -0.2736399 0.3841652 0.10778372 0.22074467
0.13778639 -0.40758145 0.21976067 -0.31286925 -0.27827123 -0.28032902 -0.31406623 0.04355578
-0.6204835 -0.3867027 0.030050324 0.24998365 -0.23714453 0.2913963 0.3941359 -0.27870739
0.25467268 -0.3161781 -0.5992503 -0.20583111 -0.12900707 -0.11108471 0.009235255 0.07066684
0.17165333 -0.054971624 -0.12410376 0.36192665 -0.2755569 -0.5808518 -0.34466457 -0.05834469
0.009825902 -0.07696244 0.13429213 -0.4137659 -0.058915313 -0.34042734 -0.44569 0.15871216
0.26450586 0.14296979 -0.18851684 -0.120247744 -0.03497389 -0.147574 0.05486572 0.27781788
0.10206994 0.36377943 -0.47384804 -0.11532424 -0.42671913 0.23335727 0.2115758 0.10626607
-0.23221777 0.23650831 0.22392775 -0.33349207 0.13707784 -0.55854577 -0.07509929 0.012984424
-0.22541738 0.46504477 -0.045876738 0.032248355 0.043668635 0.12945384 0.3185711 -0.08948007
0.62321526 0.42932075 0.110851064 -0.360576 0.18459345 -0.07613586 -0.234986 0.20502748
-0.40214938 0.42410913 0.60413593 0.19752494 0.013446137 0.21711054 -0.08580939 0.020225136
-0.24533334 -0.31214204 0.36078617 -0.15521263 -0.0367123 0.6223761 0.09550917 0.1496453
-0.26243705 0.3444653 -0.07263131 0.043116644 0.20011972 0.41707388 0.3116444 0.012094267
-0.13509087 -0.04739284 -0.04773512 0.26740712 -0.111727975 0.16695611 0.21333711 -0.11368236
0.08090422 0.22155924 -0.4213807 -0.1740633 -0.29822174 0.108399265 -0.10214183 0.2754397
-0.092313 0.3133625 0.4160554 -0.1682937 0.12370059 -0.039009754 -0.34517998 -0.1952223
-0.090285964 0.19392632 -0.1680811 0.35148814 0.13811475 0.26218393 -0.11389066 0.33492276
0.47998095 -0.024245474 -0.4724713 -0.1697571 0.3746354 -0.12073431 -0.3412963 0.08690053
-0.1318952 0.22258644 0.37156346 0.2667246 -0.014127985 0.29382792 -0.12977365 -0.1985906
0.23965257 -0.21506026 0.29195634 -0.20091535 0.113015555 0.20083292 0.013794719 0.44257385
-0.103133395 0.40357426 -0.29122525 0.20403025 -0.3992987 0.47145402 0.1062877 0.23644279
-0.15806074 0.011808911 -0.039898954 0.23972522 -0.34200922 -0.08467215 -0.016158167 -0.12587635
-0.18133384 -0.14719181 0.14644028 -0.006026608 0.28072122 -0.34951416 -0.014597813 0.13507031
-0.1952312 0.14642243 -0.043844093 0.14610203 -0.031455424 0.047502324 -0.017367072 -0.13188829
-0.045902375 0.049033064 -0.08065966 -0.069482796 -0.19217081 0.046056718 -0.37716454 -0.0025040112
-0.03752999 -0.22918226 -0.23831275 0.28195643 0.14611399 0.14784391 0.19936344 -0.3943035
0.06374874 -0.41195753 -0.05352407 -0.033120744 -0.2450605 0.06096085 -0.06311032 -0.19898872
0.35714132 0.13375463 -0.10577712 -0.1723866 0.18218566 -0.18931486 -0.21405539 -0.106902055
-0.18264444 0.12518322 0.2629911 0.11829201 -0.064805485 0.17096308 -0.20542248 -0.12547845
0.055002864 -0.038179535 -0.18971409 -0.09312136 -0.20108159 -0.36934173 -0.2990606 0.3484205
00000000: eb56 b83b 0b0a fdbe d1b4 bd3e 620c 5e3e
00000010: 1ceb 603d 3420 9fbe 68de 96be 22c4 e53d
00000020: 8797 44bd 2567 14bd 0cb9 20be 9860 823e
00000030: 871a 8cbe 4db1 c43e b6bd dc3d e40a 623e
00000040: e017 0d3e 84ae d0be f108 613e 6630 a0be
00000050: 9179 8ebe 4987 8fbe 4acd a0be 8c67 323d
00000060: 02d8 1ebf e5fd c5be 192c f63c b7fb 7f3e
00000070: 04d6 72be e531 953e 2ecc c93e bcb2 8ebe
00000080: 7564 823e 19e2 a1be 7868 19bf 64c5 52be
00000090: 6e1a 04be 6180 e3bd 784f 173c c7b9 903d
000000a0: e4c5 2f3e ed29 61bd 1d2a febd 734e b93e
000000b0: cb15 8dbe b4b2 14bf e077 b0be d7fa 6ebd
000000c0: d2fc 203c 7c9e 9dbd e083 093e 20d9 d3be
000000d0: 2f51 71bd 7e4c aebe 7b31 e4be 7185 223e
000000e0: 506d 873e ac66 123e 8f0a 41be 7344 f6bd
000000f0: c840 0fbd a31d 17be e1ba 603d 253e 8e3e
00000100: 0b0a d13d 4c41 ba3e 369c f2be 1d2f ecbd
00000110: ee7a dabe 35f5 6e3e 54a7 583e 06a2 d93d
00000120: 7fca 6dbe 3c2f 723e 514d 653e 79bf aabe
00000130: 225e 0c3e dbfc 0ebf a8cd 99bd 9fbc 543c
00000140: d0d3 66be 591a ee3e 3fe9 3bbd da16 043d
00000150: e2dd 323d 8c8f 043e c01b a33e 5441 b7bd
00000160: 098b 1f3f eecf db3e e205 e33d 6b9d b8be
00000170: 1106 3d3e 1eed 9bbd 2ca0 70be b9f2 513e
00000180: 86e6 cdbe d524 d93e a7a8 1a3f fa43 4a3e
00000190: 304d 5c3c 3a52 5e3e d5bc afbd 2faf a53c
000001a0: aa38 7bbe 15d1 9fbe f7b8 b83e 0ff0 1ebe
000001b0: a35f 16bd 0a54 1f3f 509a c33d 9e3c 193e
000001c0: 265e 86be c15d b03e b9bf 94bd 149b 303d
000001d0: 2fec 4c3e b58a d53e db8f 9f3e 0827 463c
000001e0: 4355 0abe ff1e 42bd e785 43bd 96e9 883e
000001f0: a3d1 e4bd 8bf6 2a3e 0b75 5a3e 4cd2 e8bd
00000200: 1db1 a53d 6de0 623e 36bf d7be a63d 32be
00000210: 85b0 98be 6f00 de3d bc2f d1bd 6f06 8d3e
00000220: 990e bdbd 0d71 a03e 3705 d53e 2f55 2cbe
00000230: bc56 fd3d b1c8 1fbd 6ebb b0be 5be8 47be
00000240: d9e7 b8bd 9f94 463e 741d 2cbe 41f6 b33e
00000250: f46d 0d3e f93c 863e 823f e9bd ff7a ab3e
00000260: 10c0 f53e 729e c6bc c2e7 f1be ced4 2dbe
00000270: 36d0 bf3e 8d43 f7bd 63be aebe e8f8 b13d
00000280: 890f 07be b3ed 633e 913d be3e 2090 883e
00000290: 1079 67bc 9d70 963e 62e3 04be 565b 4bbe
000002a0: 7c67 753e c238 5cbe 4d7b 953e c1bc 4dbe
000002b0: b374 e73d 25a7 4d3e 3f03 623c 0a99 e23e
000002c0: 9a37 d3bd 49a1 ce3e 7a1b 95be 4eed 503e
000002d0: e170 ccbe 6c62 f13e 5ead d93d 0f1e 723e
000002e0: adda 21be 2a7a 413c 166d 23bd 877a 753e
000002f0: d51b afbe 9868 adbd 225e 84bc bbe5 00be
00000300: 94af 39be 73b9 16be 71f4 153e da7a c5bb
00000310: b1ba 8f3e 85f3 b2be aa2b 6fbc df4f 0a3e
00000320: b0ea 47be c3ef 153e dd95 33bd c59b 153e
00000330: 67d7 00bd cc91 423d 6445 8ebc b90d 07be
00000340: 2104 3cbd e5d6 483d e430 a5bd ff4c 8ebd
00000350: 6dc8 44be f8a5 3c3d b61b c1be 561a 24bb
00000360: 0cb9 19bd c1ae 6abe 4208 74be 985c 903e
00000370: e89e 153e 6564 173e ee25 4c3e 26e2 c9be
00000380: b38e 823d 19ec d2be 0e3c 5bbd 9ea9 07bd
00000390: 24f1 7abe 16b2 793d fc3f 81bd b3c3 4bbe
000003a0: 3adb b63e f9f6 083e ada1 d8bd 1d86 30be
000003b0: e18e 3a3e c1db 41be 5631 5bbe 77ef dabd
000003c0: 2507 3bbe 0830 003e c5a6 863e 1543 f23d
000003d0: bdb8 84bd f210 2f3e 455a 52be 6c7d 00be
000003e0: af4a 613d 2562 1cbd 6944 42be 69b6 bebd
000003f0: 55e8 4dbe 5c1a bdbe 791e 99be 2c64 b23e

net.2.bias f4 [64]
-0.16537629 0.1819349 0.004935531 -0.14348894 -0.15570898 -0.110668175 0.25788933 0.09808002
-0.022885177 -0.089783475 -0.20146964 -0.11963552 -0.07724853 -0.06491915 -0.12784207 0.1385365
-0.18239081 -0.15119328 0.11783584 -0.12830207 -0.33422592 0.2183197 -0.07402501 -0.043345693
0.0038090742 -0.16874133 -0.03090375 -0.17611142 0.16746692 -0.281913 0.14281172 0.12596408
-0.13630772 -0.120005146 0.08541166 0.22306877 0.02590148 0.37288895 0.15471928 0.04537377
-0.077943996 0.10652044 0.26079935 -0.049077034 -0.07082966 -0.09576615 -0.105068825 0.045197845
0.022213725 -0.09251679 0.08652132 0.085521564 0.026470987 0.18099706 0.24530014 0.26252538
0.088996105 0.39880705 -0.02517407 0.23303472 0.18455714 -0.08122073 -0.08367207 0.22481956
00000000: 6758 29be 244d 3a3e 3cba a13b c4ee 12be
00000010: 2d72 1fbe ffa5 e2bd 120a 843e 2dde c83d
00000020: b279 bbbc 66e0 b7bd 0f4e 4ebe 7803 f5bd
00000030: 7a34 9ebd 55f4 84bd 08e9 02be 83dc 0d3e
00000040: a8c4 3abe 69d2 1abe eb53 f13d 9e61 03be
00000050: a91f abbe 338f 5f3e 6d9a 97bd 418b 31bd
00000060: a9a1 793b 87ca 2cbe dc29 fdbc 8d56 34be
00000070: 737c 2b3e e756 90be 3c3d 123e bafc 003e
00000080: 4094 0bbe 42c5 f5bd 4fec ae3d 246c 643e
00000090: 572f d43c 4deb be3e bb6e 1e3e d9d9 393d
000000a0: 1aa1 9fbd 6327 da3d 7e87 853e 0005 49bd
000000b0: 240f 91bd 0b21 c4bd 532e d7bd 6021 393d
000000c0: 8ff9 b53c 7179 bdbd 1732 b13d ee25 af3d
000000d0: afd9 d83c 4b57 393e f62f 7b3e ba69 863e
000000e0: 9743 b63d 7030 cc3e da39 cebc a7a0 6e3e
000000f0: 8cfc 3c3e 0e57 a6bd 435c abbd 1937 663e

net.4.weight f4 [1, 64]
-0.5940057 0.48432252 -0.16995116 0.31692645 -0.51337147 -0.43087226 0.38131675 -0.28106293
0.37329155 0.37047434 -0.4416801 0.3259692 0.5046733 0.3416409 0.5078088 -0.29145688
-0.48603532 -0.45409438 -0.356947 -0.47619778 -0.4016403 0.43228877 0.34232372 -0.45535094
-0.31480664 -0.5626231 -0.23205577 -0.47877383 0.3350494 -0.45417568 0.44457752 -0.33722326
0.46389806 0.31781608 -0.21892077 0.4867637 -0.3745739 0.42809135 -0.3070158 -0.32786554
-0.28897315 -0.44870937 0.4686023 0.3106435 0.5006472 0.38063157 0.5511432 0.40806806
-0.37202808 0.42722556 -0.25675958 -0.45117226 -0.3436655 0.56503034 0.4862274 0.3950218
-0.33515906 0.43214068 -0.3763545 0.5120851 0.56091523 0.27586856 0.45686918 0.5052119
00000000: c210 18bf 1ff9 f73e ad07 2ebe 2f44 a23e
00000010: 506c 03bf 4a9b dcbe f33b c33e 7be7 8fbe
00000020: 1220 bf3e d0ae bd3e e523 e2be 6fe5 a63e
00000030: 4532 013f 8eeb ae3e c2ff 013f d639 95be
00000040: 9fd9 f8be 0f7f e8be c2c1 b6be 32d0 f3be
00000050: cca3 cdbe f454 dd3e 0e45 af3e c223 e9be
00000060: 562e a1be 1108 10bf 07a0 6dbe d821 f5be
00000070: 988b ab3e b789 e8be aa9f e33e 87a8 acbe
00000080: 0c84 ed3e cab8 a23e c42c 60be 1739 f93e
00000090: 26c8 bfbe ca2e db3e 2d31 9dbe fedd a7be
000000a0: 4af4 93be 3cbd e5be a4ec ef3e aa0c 9f3e
000000b0: 6a2a 003f 24e2 c23e b917 0d3f 4cee d03e
000000c0: 777a bebe 4fbd da3e fe75 83be 0d00 e7be
000000d0: edf4 afbe d4a5 103f ccf2 f83e 4c40 ca3e
000000e0: f899 abbe 8b41 dd3e 89b1 c0be 0218 033f
000000f0: 2498 0f3f a53e 8d3e c2ea e93e 9155 013f
