mukhanov_phase2/models/drive-download-20250708T094644Z-1-001/pinn_k008.pt (torch, 20060 bytes, 5 tensors)

net.0.weight f4 [64, 1]
0.19053547 -0.23116972 0.051259886 -0.016368348 -0.23052968 -0.039738327 0.09347602 -0.17045844
0.08231183 -0.14763147 0.0015549214 -0.1960307 0.009278901 0.106566966 -0.18466915 0.25494608
-0.04217436 -0.15733355 -0.01293268 0.17212062 0.024478976 -0.050840583 -0.011196815 -0.18837376
0.018519273 0.10672855 -0.18593125 0.2965669 0.26572877 0.19517525 0.11576403 -0.0775051
0.08634499 0.22029114 0.05799336 0.18008895 -0.06330626 -0.26073912 -0.05951572 0.16275285
0.026830211 0.27319726 0.11776954 0.28953612 0.2245629 0.030901555 -0.2700554 0.18730359
0.15313244 0.20110215 -0.29708853 -0.27914792 0.2548342 0.10051276 -0.08163182 -0.22478105
-0.2370245 0.02597101 0.20975271 -0.13614085 0.11805944 0.05379642 -0.029205488 -0.060854428
00000000: bb1b 433e c1b7 6cbe e3f5 513d ea16 86bc
00000010: f90f 6cbe a8c4 22bd 5b70 bf3d a88c 2ebe
00000020: 1b93 a83d b42c 17be 81ce cb3a 46bc 48be
00000030: 8806 183c c83f da3d e919 3dbe 4b88 823e
00000040: 06bf 2cbd 0c1c 21be 97e3 53bc 6340 303e
00000050: 2288 c83c 373e 50bd d972 37bc 0de5 40be
00000060: bbb5 973c 7f94 da3d c364 3ebe 9ed7 973e
00000070: 9a0d 883e 05dc 473e b115 ed3d feba 9ebd
00000080: a4d5 b03d 0094 613e 728a 6d3d 3d69 383e
00000090: b6a6 81bd 997f 85be c1c6 73bd afa8 263e
000000a0: 08cb db3c 83e0 8b3e 2831 f13d 143e 943e
000000b0: d1f3 653e 4225 fd3c b444 8abe 83cc 3f3e
000000c0: c0ce 1c3e b9ed 4d3e fd1b 98be 7aec 8ebe
000000d0: a179 823e a2d9 cd3d 952e a7bd 012d 66be
000000e0: 8db6 72be 28c1 d43c 6ac9 563e 8268 0bbe
000000f0: 26c9 f13d a359 5c3d 5940 efbc 7e42 79bd

net.0.bias f4 [64]
0.0066616377 0.012655658 -0.002432194 0.017047936 0.02175712 0.015408799 0.008276537 0.017064799
0.0027965147 0.011828025 -0.0032154093 0.018990887 0.004297689 0.0039081564 0.015442178 0.0070644487
0.011848407 0.0456021 0.012618804 -0.009245696 -0.00078369747 0.0180331 0.017390532 0.013630707
0.0063845497 0.003053016 0.01871845 0.007378936 -0.030795602 0.008454355 0.0059920745 0.014948915
0.006802872 -0.002348413 0.00668775 0.002881781 0.029095424 0.010096911 0.056717608 -0.005774856
0.0059710857 0.0057881656 0.008925439 0.0023091678 0.007105563 -0.0031739473 0.021200934 0.00444318
0.0073814588 -0.019186446 0.013047039 0.01403248 0.0030336506 0.007969562 0.01804481 0.024312988
0.012011972 0.005535861 -0.006686773 0.023234054 0.0017777473 0.004898345 0.012270779 0.011438996
00000000: de49 da3b ad59 4f3c 7265 1fbb 1da8 8b3c
00000010: fd3b b23c 3075 7c3c 509a 073c 7acb 8b3c
00000020: bb45 373b 55ca 413c 9eb9 52bb c792 9b3c
00000030: a1d3 8c3b fe0f 803b 3001 7d3c e47c e73b
00000040: d21f 423c 45c9 3a3d 1abf 4e3c 427b 17bc
00000050: 0c71 4dba 27ba 933c 9776 8e3c 5453 5f3c
00000060: 7c35 d13b 1c15 483b 6f57 993c 00cb f13b
00000070: 0f47 fcbc 2384 0a3c 2a59 c43b 4bec 743c
00000080: a0ea de3b d5e7 19bb ea24 db3b 43dc 3c3b
00000090: 8759 ee3c 846d 253c b950 683d 013b bdbb
000000a0: 19a9 c33b a7aa bd3b 013c 123c 6855 173b
000000b0: c8d5 e83b 0002 50bb 95ad ad3c 1898 913b
000000c0: 2ae0 f13b e52c 9dbc 3fc3 553c 7de8 653c
000000d0: 36d0 463b c492 023c b6d2 933c 082c c73c
000000e0: ddcd 443c 2b66 b53b b81c dbbb 5855 be3c
000000f0: 4d03 e93a 4c82 a03b 610b 493c a06a 3b3c

net.2.weight f4 [64, 64]
0.0358242 0.1675 0.07738597 -0.08357504 -0.1595349 0.19505197 -0.06819009 0.038870465
0.0038132432 0.080941595 0.010659526 0.10877187 -0.024681358 0.020274773 0.013303654 0.119576685
-0.149158 -0.21266615 0.06740758 0.07946796 -0.20047621 0.16302691 0.18617177 0.013478278
-0.08856446 0.06649981 -0.115102306 -0.14191005 -0.18680438 0.12308993 -0.06776427 0.14378013
-0.066076 -0.113790855 0.09516661 -0.0677116 0.12157974 0.0942065 0.15708597 -0.15560852
-0.16570647 0.1948973 0.09153082 0.09252196 0.018604979 0.18793988 0.20114611 -0.08189376
0.1749454 -0.053572007 0.1053616 0.1401297 -0.14359167 -0.11982774 -0.16309676 -0.02669626
-0.06813414 -0.13211438 -0.04164399 -0.1154352 0.12993723 -0.0038730402 0.107378356 0.053139556
-0.022776894 0.075203165 -0.16156529 -0.11748064 0.15676658 -0.16742693 0.15044649 -0.026470922
0.064966574 -0.02562251 0.094485804 0.114213966 0.04391654 0.20795739 0.20148486 0.008380794
-0.20878683 0.058052506 -0.1236849 -0.014389455 -0.21663637 0.008515427 0.1727047 -0.116183944
0.16712344 0.015788369 0.044369407 -0.18833455 0.02689535 0.1188206 -0.19087851 0.10950401
-0.13502657 -0.1772788 -0.14498389 0.12502895 -0.0067222044 -0.08192846 -0.10426167 0.16126992
-0.2148595 0.062696375 0.20400785 -0.07223179 0.08080109 0.003608244 0.21272653 -0.20531861
0.16163222 -0.105448976 0.18125819 0.040833402 0.17952198 0.051655985 0.085849404 -0.026899185
0.12266224 0.06487392 -0.17637363 -0.022730365 -0.114068426 0.030134728 0.07842588 0.08146932
0.17628096 -0.1902593 0.11736061 0.20475955 -0.12478504 -0.110109866 0.04452571 0.14425772
0.06058723 0.08881233 -0.11555798 0.19747032 -0.18328379 -0.03802627 -0.08581668 -0.036822822
0.16879636 -0.18677531 0.027473232 -0.042655483 -0.025127748 -0.08571564 -0.19958551 0.069893025
-0.11306396 0.2019454 0.14044051 0.060667705 0.0023325675 -0.0017447602 -0.14711088 0.1611738
0.09878246 0.14336202 -0.13303527 -0.14295945 0.13426073 0.1542996 -0.032453645 0.116479896
0.20979172 0.15963772 -0.1558405 -0.2070976 0.08932217 -0.124600224 0.18528306 0.041251726
-0.04641862 0.110232525 -0.028346982 -0.12177051 -0.09182223 0.061660495 -0.17203866 -0.2086561
-0.14522657 0.10826225 -0.18723288 0.11137174 0.014812748 -0.20655085 0.07357418 -0.1835528
-0.17917944 -0.09357478 0.1904929 -0.16018075 -0.19615538 0.12938493 -0.09571766 -0.17157196
-0.000565911 -0.18812318 0.18567692 0.06836871 -0.1553714 -0.17278047 -0.13843496 -0.15044957
0.061542157 -0.094130374 0.10189602 0.052878905 -0.070099965 -0.18336523 -0.062264837 -0.16960895
-0.16839997 -0.04693651 0.056671668 -0.073137864 0.16140209 -0.026079724 -0.016370982 0.0031634518
0.062230017 -0.17924078 -0.06327608 -0.01546029 -0.004964458 0.20665981 0.029354163 0.094454855
-0.14604543 -0.035484314 -0.17409134 0.054187734 -0.15134016 -0.009501544 0.13370767 0.11113524
0.18277049 0.10302582 -0.17910673 -0.1544101 -0.16834256 0.019952556 0.21588889 0.19907126
-0.015521605 -0.2135161 -0.16306877 0.17542723 -0.15056287 0.104287565 -0.022277532 -0.20962799
00000000: 65bc 123d 1f85 2b3e 897c 9e3d 6429 abbd
00000010: 1e5d 23be b4bb 473e 3fa7 8bbd a336 1f3d
00000020: 9be7 793b b5c4 a53d 4ba5 2e3c c9c3 de3d
00000030: 8f30 cabc 4817 a63c 92f7 593c 9fe4 f43d
00000040: e0bc 18be 28c5 59be fc0c 8a3d 19c0 a23d
00000050: a349 4dbe 87f0 263e d0a3 3e3e ffd3 5c3c
00000060: 4961 b5bd 0d31 883d c2ba ebbd de50 11be
00000070: a649 3fbe 9316 fc3d fec7 8abd 193b 133e
00000080: db52 87bd 2e0b e9bd b6e6 c23d 61ac 8abd
00000090: ccfe f83d 56ef c03d 25db 203e d757 1fbe
000000a0: f5ae 29be 2893 473e 8374 bb3d 277c bd3d
000000b0: 7869 983c 5073 403e 3ff9 4d3e eab7 a7bd
000000c0: e324 333e 526e 5bbd d3c7 d73d 297e 0f3e
000000d0: b209 13be 3f68 f5bd d602 27be 1db2 dabc
000000e0: e989 8bbd fe48 07be e392 2abd 4a69 ecbd
000000f0: 440e 053e d5d2 7dbb 2fe9 db3d dda8 593d
00000100: 9c96 babc 1e04 9a3d 5f71 25be b199 f0bd
00000110: 6b87 203e f771 2bbe a50e 1a3e 8cd9 d8bc
00000120: 320d 853d 4ce6 d1bc c681 c13d 03e9 e93d
00000130: d4e1 333d c8f2 543e 0c52 4e3e 994f 093c
00000140: 37cc 55be 77c8 6d3d 824e fdbd c0c1 6bbc
00000150: edd5 5dbe 4a84 0b3c 80d9 303e d9f1 edbd
00000160: 6822 2b3e 9c56 813c b2bc 353d c6da 40be
00000170: a353 dc3c 3758 f33d a875 43be a343 e03d
00000180: 6844 0abe 9388 35be a876 14be 9707 003e
00000190: f045 dcbb 1cca a7bd 2487 d5bd f123 253e
000001a0: 2104 5cbe f566 803d 6fe7 503e 43ee 93bd
000001b0: 0b7b a53d 4a78 6c3b fcd4 593e 0b3f 52be
000001c0: eb82 253e a2f5 d7bd bf9b 393e ed40 273d
000001d0: 9cd4 373e 3a95 533d d0d1 af3d ae5b dcbc
000001e0: 5736 fb3d 9edc 843d 4a9b 34be 0835 babc
000001f0: b59c e9bd 1bdd f63c bf9d a03d 63d9 a63d
00000200: ff82 343e 55d3 42be c25a f03d 7dac 513e
00000210: 4d8f ffbd 4881 e1bd 9760 363d 4cb8 133e
00000220: 512a 783d 3de3 b53d aaa9 ecbd a935 4a3e
00000230: bfae 3bbe 6fc1 1bbd a8c0 afbd 87d3 16bd
00000240: f4d8 2c3e 0742 3fbe 8b0f e13c 84b7 2ebd
00000250: b5d8 cdbc ae8b afbd 2560 4cbe 1324 8f3d
00000260: 148e e7bd c6ca 4e3e a3cf 0f3e b37e 783d
00000270: fddd 183b 70b0 e4ba 3ca4 16be bf0a 253e
00000280: 754e ca3d 7ecd 123e 663a 08be f663 12be
00000290: a57b 093e b700 1e3e 1dee 04bd 038d ee3d
000002a0: a4d3 563e 1278 233e a794 1fbe 6511 54be
000002b0: 8bee b63d 672e ffbd d8ba 3d3e 92f7 283d
000002c0: 7321 3ebd 97c1 e13d ee37 e8bc d162 f9bd
000002d0: 4b0d bcbd b78f 7c3d e72a 30be f2a9 55be
000002e0: 46b6 14be 99b8 dd3d fab9 3fbe de16 e43d
000002f0: 2bb1 723c 1182 53be 0fae 963d 44f5 3bbe
00000300: d17a 37be 22a4 bfbd 9210 433e 6c06 24be
00000310: f5dc 48be 7c7d 043e 9f07 c4bd 8fb0 2fbe
00000320: a559 14ba 5da3 40be 1722 3e3e e504 8c3d
00000330: ae19 1fbe 5ded 30be e5c1 0dbe 740f 1abe
00000340: a113 7c3d 6dc7 c0bd dcae d03d 8d97 583d
00000350: 9290 8fbd 18c4 3bbe 6a09 7fbd f8ad 2dbe
00000360: 0b71 2cbe 7f40 40bd 8d20 683d 4ec9 95bd
00000370: 9746 253e 25a5 d5bc 701c 86bc ea51 4f3b
00000380: e7e4 7e3d e58a 37be e496 81bd 284d 7dbc
00000390: e4ac a2bb a19e 533e 2478 f03c 8c71 c13d
000003a0: ef8c 15be 0058 11bd 0045 32be f5f3 5d3d
000003b0: eaf8 1abe 5dac 1bbc aaea 083e df9a e33d
000003c0: 3028 3b3e 33ff d23d c167 37be ae1d 1ebe
000003d0: fe61 2cbe 8b73 a33c fa11 5d3e 56d9 4b3e
000003e0: 544e 7ebc f7a3 5abe 80fb 26be 32a3 333e
000003f0: 272d 1abe b894 d53d 5f7f b6bc b8a8 56be

net.2.bias f4 [64]
0.010064984 0.010356933 0.010358523 0.009978776 0.011575004 0.009463675 0.009943073 0.009822219
0.013485752 0.010195367 0.0093065845 0.0064465674 0.010871035 0.00980001 0.010675077 0.0104519
0.009413498 0.009708517 0.009810119 0.008969852 0.010355566 0.009381033 0.010525202 0.018280718
0.008632141 0.0094010215 0.008859381 0.011158619 0.009886478 0.009553572 0.010773918 0.011449246
0.009762665 0.009257519 0.008781896 0.008552798 0.009986549 0.009373365 0.009558527 0.010168757
0.009168846 0.009381035 0.010119058 0.010313502 0.010287634 0.009830365 0.010529752 0.011253656
0.011056413 0.0074641285 0.0104635265 0.009636166 0.012211906 0.010454972 0.014095226 0.009161972
0.010430352 0.009993262 0.009108634 0.011818874 0.009325743 0.01015396 0.009630342 0.010046625
00000000: 9ae7 243c 20b0 293c cbb6 293c 057e 233c
00000010: 16a5 3d3c 880d 1b3c 45e8 223c 5fed 203c
00000020: 58f3 5c3c 780a 273c a57a 183c ba3d d33b
00000030: 6d1c 323c 3990 203c 85e6 2e3c 723e 2b3c
00000040: 133b 1a3c 7910 1f3c 9fba 203c 49f6 123c
00000050: 64aa 293c e7b2 193c e671 2c3c 72c1 953c
00000060: d36d 0d3c be06 1a3c f026 113c a4d2 363c
00000070: e5fa 213c 9686 1c3c 1685 303c 9e95 3b3c
00000080: 96f3 1f3c d9ac 173c f1e1 0f3c 0921 0c3c
00000090: 9f9e 233c be92 193c 5e9b 1c3c dc9a 263c
000000a0: ed38 163c eab2 193c 68ca 253c f6f9 283c
000000b0: 778d 283c 8a0f 213c fb84 2c3c 4161 383c
000000c0: f525 353c a695 f43b 366f 2b3c 02e1 1d3c
000000d0: 7214 483c 554b 2b3c aaef 663c 191c 163c
000000e0: 11e4 2a3c c7ba 233c 613c 153c f3a3 413c
000000f0: 00cb 183c cc5c 263c 95c8 1d3c 999a 243c

net.4.weight f4 [1, 64]
-0.10425431 -0.24369583 0.12732466 -0.06737145 -0.03878234 -0.26541212 -0.25945097 -0.11318089
0.01092435 -0.29776138 -0.17865656 0.015547065 0.22045732 -0.13599718 0.15023102 -0.034545325
-0.28372917 0.15941362 -0.15654023 0.12782894 0.17653838 -0.29073083 0.10495699 -0.003816541
-0.051004376 -0.2836693 -0.07277548 0.07694981 0.29301685 -0.1697759 -0.10802405 -0.038335204
0.071423106 -0.24442437 -0.07935469 -0.052499402 -0.07539521 -0.25946322 -0.2869643 0.2374423
-0.14002539 -0.20126155 0.036792353 0.095795386 0.18633625 0.23799153 0.20887804 0.061269585
0.10401104 -0.017736051 -0.036683954 -0.14867754 -0.031621292 0.16563365 -0.005067231 -0.07159257
0.1396792 -0.21283703 -0.23024198 0.023953652 4.3650856e-05 0.2613643 -0.16084309 0.27727142
00000000: 4983 d5bd 668b 79be 6561 023e 0bfa 89bd
00000010: 3bda 1ebd 19e4 87be c2d6 84be 62cb e7bd
00000020: 0bfc 323c 2e74 98be bff1 36be 1eb9 7e3c
00000030: 90bf 613e d842 0bbe 29d6 193e 667f 0dbd
00000040: f344 91be 533d 233e 154c 20be 97e5 023e
00000050: 7ac6 343e acda 94be b1f3 d63d ef1e 7abb
00000060: f7e9 50bd 1a3d 91be 500b 95bd dd97 9d3d
00000070: 4e06 963e bcd9 2dbe b73b ddbd 6005 1dbd
00000080: 4746 923d 624a 7abe b684 a2bd 9d09 57bd
00000090: ce68 9abd 5dd8 84be fcec 92be 1324 733e
000000a0: d162 0fbe 8217 4ebe 94b3 163d 5f30 c43d
000000b0: eece 3e3e 0db4 733e 20e4 553e d1f5 7a3d
000000c0: bd03 d53d 324b 91bc ea41 16bd ed3e 18be
000000d0: 5485 01bd de9b 293e 040b a6bb 209f 92bd
000000e0: 1008 0f3e f3f1 59be 8ec4 6bbe 733a c43c
000000f0: c015 3738 8bd1 853e 0db4 24be 85f6 8d3e
