mukhanov_phase2/models/drive-download-20250708T094644Z-1-001/pinn_k002.pt (torch, 20060 bytes, 5 tensors)

net.0.weight f4 [64, 1]
0	0x3e9028c9	0.28156117
1	0xbe8522e9	-0.26003197
2	0xbec1904a	-0.37805396
3	0xbcf0d66d	-0.029399121
4	0x3ebd3daf	0.36961123
5	0x3e4f86e0	0.20266294
6	0xbe72b696	-0.23702464
7	0x3eb7c993	0.35895976
8	0x3e3f8258	0.18702066
9	0xbeb70b8e	-0.35751003
10	0xbebcd24d	-0.36879197
11	0x3df2b1c5	0.11850313
12	0x3e785aea	0.24253431
13	0x3e642e99	0.222834
14	0x3e5d9130	0.21637416
15	0xbec1f36b	-0.37881026
16	0xbecc3665	-0.3988525
17	0x3eab805d	0.3349637
18	0x3e984b8d	0.2974514
19	0xbe46e38e	-0.19422743
20	0xbe324c0c	-0.17411822
21	0x3e9e0e6e	0.30870384
22	0xbea4fbf3	-0.32223472
23	0xbea03958	-0.3129375
24	0x3ec60788	0.3867762
25	0x3e26c555	0.16286214
26	0x3e559c16	0.20860323
27	0xbeb98ac4	-0.36238682
28	0xbdce68f4	-0.10078612
29	0xbdd3a406	-0.10334019
30	0x3e898136	0.26856393
31	0xbe19690e	-0.14981481
32	0x3e156bbd	0.1459188
33	0xbe39d2dd	-0.18146844
34	0x3e3f3e8a	0.186762
35	0x3e5047d9	0.20339908
36	0x3e9b19b5	0.3029305
37	0xbe8395f9	-0.25700358
38	0xbd25de56	-0.04049524
39	0x3e184a03	0.14871983
40	0x3cacf1d6	0.02111141
41	0xbe28e1b8	-0.16492355
42	0xbe130b00	-0.14359665
43	0x3e46968c	0.19393367
44	0xbeabbacb	-0.3354095
45	0xbe6215d5	-0.22078641
46	0xbe99bcdc	-0.300269
47	0xbea126f4	-0.3147503
48	0x3e4a2db5	0.19743998
49	0x3e108ab4	0.14115411
50	0x3eafa9f9	0.34309366
51	0x3e878ddb	0.26475415
52	0xbe213e91	-0.15746523
53	0xbec3871a	-0.38189012
54	0xbe2f5552	-0.17122391
55	0x3eb528aa	0.35382587
56	0xbe44f69f	-0.19234703
57	0xbe40a48d	-0.18812771
58	0x3e5476ac	0.20748395
59	0x3eba1c06	0.36349505
60	0x3e27a3ff	0.16371153
61	0xbeb7ab01	-0.35872653
62	0x3e7950a6	0.24347171
63	0xbe83aba4	-0.2571689

net.0.bias f4 [64]
0	0xbd52bc81	-0.051449303
1	0x3d8ebcd1	0.069696076
2	0x3dbbdb82	0.09172727
3	0x3d93d1b1	0.0721773
4	0x3ba9bd94	0.00518007
5	0xbd5c4424	-0.05377592
6	0x3d8e290f	0.06941425
7	0xbd549525	-0.051900048
8	0xbd6db913	-0.05803783
9	0x3daa7f95	0.083251156
10	0x3db6da20	0.08928323
11	0x3d866f0d	0.0656415
12	0xbd4c30ac	-0.049851105
13	0xbcc3ca83	-0.023900276
14	0xbd27196c	-0.04079573
15	0x3dc4b704	0.0960522
16	0x3dbb2d8f	0.09139549
17	0x3d50dba1	0.050990704
18	0xbd872f4e	-0.066008195
19	0x3d812c64	0.06307295
20	0x3d80a48c	0.06281385
21	0x3d83a7e5	0.06428508
22	0x3daa8e84	0.08327964
23	0x3dbc50dd	0.09195111
24	0xbd9c6002	-0.076354995
25	0xbd156dba	-0.036481597
26	0x3cb54890	0.022129327
27	0x3db9439b	0.09046098
28	0xbd76539b	-0.060138326
29	0xbd9e8cab	-0.07741674
30	0xbd8ef23e	-0.06979798
31	0x3d97d214	0.07413116
32	0xbd3e2b69	-0.046428118
33	0x3da50e9e	0.08059429
34	0xbd4a0207	-0.04931834
35	0xbd82d0bf	-0.063874714
36	0xbd99aefa	-0.07504077
37	0x3db7d285	0.089757
38	0x3d888324	0.06665638
39	0x3d5ee4c5	0.05441739
40	0xbd159c5d	-0.036526073
41	0x3d52278e	0.051307254
42	0x3dc30c58	0.09523839
43	0x3da6dcea	0.08147605
44	0x3bce582f	0.0062971334
45	0x3db9a0fc	0.090639085
46	0x3d9a9765	0.075484075
47	0x3d8c91e2	0.068637624
48	0xbcd40a0c	-0.025883697
49	0xbd45fca9	-0.04833666
50	0x3d4c922f	0.0499441
51	0x3d7110e0	0.058853984
52	0x3d93e23d	0.07220886
53	0x3dc88b13	0.09792151
54	0x3d783d07	0.060605075
55	0xbd9b8f05	-0.07595638
56	0x3d8ce850	0.068802476
57	0x3d8fb640	0.07017183
58	0xbd871a0f	-0.06596767
59	0xbd314d61	-0.043286685
60	0x3d9222d8	0.07135552
61	0x3d7e4189	0.062074218
62	0xbd5f8986	-0.054574512
63	0x3d8c254c	0.06843051

net.2.weight f4 [64, 64]
0	0x3e37bb8f	0.17942642
1	0xbccd42a4	-0.02505619
2	0x3d3e5231	0.046465103
3	0x3c072dd7	0.008250675
4	0x3e9a7d67	0.301738
5	0x3e34d0af	0.17657731
6	0xbeaa65a8	-0.33280683
7	0xbd98c563	-0.074595235
8	0x3e06d9cd	0.13169022
9	0xbeb3af54	-0.35094702
10	0xbe4eb334	-0.20185548
11	0x3d560208	0.05224803
12	0xbc1e475a	-0.009660566
13	0x3e745d05	0.23863609
14	0x3d9b6781	0.07588101
15	0xbe965992	-0.29365212
16	0x3d901e30	0.07037008
17	0xbdbdf96c	-0.09276089
18	0x3d856247	0.065128855
19	0xbd65cf12	-0.05610568
20	0xbea5c24c	-0.323748
21	0x3e9747b8	0.29546905
22	0x3ca6e961	0.020374956
23	0xbe9da2ff	-0.3078842
24	0x3ea55bf4	0.32296717
25	0xbd5f4de9	-0.05451766
26	0x3e25a389	0.16175665
27	0xbe22f791	-0.15914752
28	0xbe6c31f6	-0.23065934
29	0x3c0a867d	0.008454916
30	0x3e0c2557	0.13686119
31	0x3cdc8a9c	0.026921563
32	0x3e9c3706	0.3051073
33	0xbe9fb261	-0.3119078
34	0x3e54a2da	0.20765248
35	0x3e98023b	0.29689202
36	0x3db741d5	0.08948103
37	0x3d565030	0.052322567
38	0xbe9be0f7	-0.30445072
39	0x3e302d1d	0.1720471
40	0xbdb0648c	-0.08612928
41	0xbe3866c3	-0.1800795
42	0x3b50b65e	0.003184698
43	0xbd52b2a9	-0.051439915
44	0xbddc99d6	-0.107715294
45	0xbe1b366f	-0.15157484
46	0xbe9da8de	-0.30792898
47	0xbea227b0	-0.31670904
48	0x3e04390a	0.12912384
49	0x3e988e6a	0.29796153
50	0x3ea08c85	0.31357208
51	0xbd1385cf	-0.03601628
52	0xbe550766	-0.20803604
53	0x3bba3787	0.005682889
54	0xbdf55b6d	-0.11980329
55	0x3d81e9ac	0.063433975
56	0xbea91f18	-0.33031535
57	0xbea30294	-0.31837904
58	0x3e9df53d	0.30851164
59	0x3e5509f6	0.20804581
60	0xbd2ca263	-0.04214705
61	0x3d7da93d	0.061928976
62	0x3bdf2d93	0.006810853
63	0xbe6ec85d	-0.2331862
64	0x3d8e8fac	0.06960997
65	0x3e44c46a	0.19215551
66	0x3ea3abc0	0.31966972
67	0xbe48f7a2	-0.19625714
68	0xbea452e1	-0.32094482
69	0xbe87b636	-0.26506203
70	0xbc34e656	-0.0110412445
71	0xbe90528d	-0.2818798
72	0xbe110f96	-0.14166102
73	0x3e5e62f8	0.21717441
74	0xbda1264d	-0.078686334
75	0xbe3cd7dd	-0.1844172
76	0xbd79621e	-0.060884587
77	0xbe851767	-0.25994417
78	0xbe9956c9	-0.29949024
79	0x3e991740	0.2990055
80	0x3e7450de	0.23858973
81	0xbe11e87b	-0.1424884
82	0xbe679fcd	-0.22619553
83	0x3e0eb1ed	0.13935061
84	0x3e8bf323	0.27333936
85	0xbd8d99fd	-0.069141366
86	0xbd9acab1	-0.075581916
87	0x3e249c0a	0.16075149
88	0xbe07deb2	-0.13268545
89	0xbd796f15	-0.06089695
90	0xbd8c488c	-0.06849775
91	0x3e4a4b08	0.19755185
92	0x3d832aa4	0.064046174
93	0xbc5204d0	-0.01281853
94	0xbe818030	-0.25293112
95	0x3e5d1883	0.21591382
96	0xbe32e474	-0.1746996
97	0x3dd9c086	0.10632424
98	0xbd8cf3ec	-0.06882462
99	0xbe2d46e2	-0.16921571
100	0x39ac59ec	0.00032873394
101	0x3ea1539d	0.31509104
102	0x3ae3c333	0.00173769
103	0xbe7a0b04	-0.24418265
104	0xbde030f2	-0.109468356
105	0xbc9bc038	-0.019012555
106	0xbc683e2a	-0.014174977
107	0xbc28fe15	-0.010314484
108	0x3e26ad3a	0.16277018
109	0x3d18fc08	0.03734973
110	0x3dd4b0c9	0.103852816
111	0x3e33b955	0.17551167
112	0xbea6190b	-0.3244098
113	0xbd27d3e5	-0.040973563
114	0x3cc808e0	0.024418294
115	0xbdf211e1	-0.118198164
116	0x3e273527	0.1632887
117	0x3e6b2e93	0.22966985
118	0x3d77e571	0.060521547
119	0xbdd81d55	-0.1055247
120	0x3d7be627	0.061498787
121	0x3ea3cec3	0.31993684
122	0xbe8c986c	-0.2746004
123	0x3db7c421	0.089729555
124	0xbd7e0a88	-0.062021762
125	0x3e12706d	0.143007
126	0xbcfbc29a	-0.030732442
127	0xbd131884	-0.03591205
128	0x3b3b2b35	0.002855969
129	0xbe236052	-0.15954712
130	0xbe5adb25	-0.2137266
131	0x3e2acd9b	0.16679995
132	0xbe100281	-0.14063455
133	0x3d4f0771	0.050544206
134	0x3e477c1b	0.19480936
135	0xbe5dfa2a	-0.21677461
136	0xbdd12870	-0.10212791
137	0x3d98fb39	0.07469792
138	0x3c33bd25	0.010970389
139	0xbe8d761d	-0.27629176
140	0xbe195702	-0.14974597
141	0xbe08c149	-0.13354982
142	0xbcd6017a	-0.026123751
143	0xbdced38b	-0.10098942
144	0xbe3ab074	-0.18231374
145	0x3d28c187	0.041200187
146	0xbe6eaecd	-0.23308869
147	0x3e365b95	0.17808373
148	0xbd554f0c	-0.052077338
149	0xbe4cc671	-0.19997574
150	0x3dd7a6e8	0.10529882
151	0x3d214239	0.039369795
152	0xbdebfa23	-0.11522319
153	0x3e00ba1d	0.12570997
154	0xbccb2228	-0.02479656
155	0xbd491f9e	-0.049102418
156	0x3db8626e	0.09003149
157	0x3d8b8d3d	0.068140484
158	0xbe58e056	-0.21179327
159	0x3def9799	0.11698837
160	0xbdd62690	-0.10456574
161	0x3e44815c	0.19189972
162	0x3dc184e1	0.09449173
163	0xbda93fdb	-0.082641326
164	0x3e47827c	0.1948337
165	0xbcb283ff	-0.021791456
166	0xbd6eac39	-0.058269713
167	0xbe8c5f1c	-0.27416313
168	0x3da14bfd	0.07875822
169	0x3e1d1651	0.15340544
170	0xbdf86b1b	-0.12129804
171	0xbe5731cc	-0.2101509
172	0x3cbfceaa	0.023413975
173	0x3b264ccc	0.0025375364
174	0x3dc31968	0.0952633
175	0xbde78ff2	-0.11306752
176	0x3d130683	0.035894882
177	0x3d8e71ac	0.06955275
178	0xbd8b71c5	-0.06808809
179	0x3dcff7fe	0.10154723
180	0x3e4c476f	0.19949125
181	0xbcf015ba	-0.029307235
182	0xbe43cc5c	-0.19120926
183	0xbd0efa29	-0.03490654
184	0xbe145ec9	-0.14489283
185	0x3d9c1e83	0.07623007
186	0x3ce44499	0.027864741
187	0xbe2efa6c	-0.17087716
188	0xbc1542df	-0.009110182
189	0x3ca9509f	0.020668326
190	0xbe796831	-0.24356152
191	0x3d9b1594	0.07572475
192	0x3df72d3e	0.12069176
193	0xbd0a64a2	-0.033787377
194	0xbd8c7c30	-0.068596244
195	0xbd77f6ba	-0.06053803
196	0x3e849653	0.25895938
197	0x3e4bab95	0.19889672
198	0xbea2c699	-0.31792143
199	0xbce4297f	-0.027851818
200	0x3e1ca0b6	0.15295681
201	0xbc41e316	-0.011833927
202	0xbd8d6c28	-0.06905395
203	0x3e43e84e	0.19131586
204	0x3e825e42	0.25462538
205	0x3e15c216	0.14624819
206	0x3e84838b	0.2588161
207	0xbdfc56e7	-0.12321263
208	0xbe027f6d	-0.12743922
209	0xbca03c26	-0.019559931
210	0x3e715351	0.23566939
211	0xbeaede03	-0.34153756
212	0xbe467db7	-0.19383894
213	0x3ea200ff	0.31641385
214	0xbe53f0eb	-0.20697372
215	0xbe35af1c	-0.1774258
216	0x3d5a6cc2	0.053326376
217	0x3d210250	0.039308846
218	0x3de0b93f	0.10972833
219	0xbcba4e76	-0.022742491
220	0xbdc5e710	-0.09663212
221	0xbe6c06cd	-0.2304947
222	0x3d19d5f1	0.037557546
223	0xbb928e78	-0.00447255
224	0x3d566911	0.052346293
225	0xbea8f851	-0.3300195
226	0x3e9dc5df	0.30815026
227	0x3ddcdfe1	0.10784889
228	0x3d22cf77	0.039748635
229	0xbe9a847e	-0.3017921
230	0x3da20d89	0.07912738
231	0xbced806d	-0.028991902
232	0x3e1b4109	0.15161528
233	0xbe12fd11	-0.1435435
234	0x3d510e88	0.05103925
235	0xba14e071	-0.00056791963
236	0xbda9a686	-0.08283715
237	0xbd947a57	-0.07249897
238	0x3d8dd49d	0.069253184
239	0xbe94ff20	-0.29100895
240	0x3e3ee5bc	0.18642324
241	0x3df961d2	0.12176861
242	0x3e2268c7	0.15860282
243	0x3dab978c	0.08378515
244	0xbe66094f	-0.22464488
245	0x3d87f601	0.066387184
246	0xbe6c0331	-0.23048092
247	0x3df9aa9a	0.12190743
248	0xbe221da5	-0.15831621
249	0xbe88a642	-0.26689345
250	0x3e8db462	0.27676684
251	0x3e8a23d2	0.26980454
252	0x3d2b1d50	0.041776
253	0x3d4c4eaf	0.049879726
254	0x3e129c73	0.14317493
255	0xbe9ad51c	-0.30240715

net.2.bias f4 [64]
0	0xbdafcdf8	-0.08584207
1	0x3d9ec2be	0.07751988
2	0xbcf7cf1b	-0.030250123
3	0xbc82be89	-0.015959995
4	0xbd25ab3b	-0.0404465
5	0x3d53a9a2	0.051675446
6	0xbd2d167a	-0.042257763
7	0xbd090353	-0.033450436
8	0x3d33b801	0.04387665
9	0x3d32e0fa	0.043671586
10	0xbcb1e278	-0.021714434
11	0x3d4a3790	0.049369395
12	0x3d4f4cf0	0.050610483
13	0xbcae36b8	-0.021266326
14	0x3d300f1a	0.042983152
15	0x3d275b78	0.040858716
16	0x3d5f011d	0.05444442
17	0xbccf35c0	-0.025294185
18	0x3d389464	0.04506339
19	0xbd078d4e	-0.033093743
20	0x3d27bc84	0.040951267
21	0x3d809285	0.062779464
22	0x3d3808db	0.04493032
23	0x3d5330cf	0.05156022
24	0xbcb892ff	-0.02253103
25	0x3d1978b3	0.037468623
26	0xbca75368	-0.020425513
27	0x3d8b99ab	0.06816419
28	0xbd30fd3e	-0.04321026
29	0x3d2b0619	0.041753862
30	0x3d910a46	0.07082038
31	0x3d92e4c8	0.07172543
32	0x3d1283d9	0.03577027
33	0xbcd6ab00	-0.026204586
34	0x3d3788b0	0.04480809
35	0xbcba25bf	-0.022723077
36	0xbd89b0ce	-0.06723176
37	0xbcc13db7	-0.023588998
38	0xbcc1f6fa	-0.023677338
39	0x3da43320	0.08017564
40	0xbd2b67c1	-0.041846994
41	0xbccd9481	-0.025095226
42	0x3d3408f5	0.043953855
43	0xbd587912	-0.052849837
44	0x3d4600c9	0.048340593
45	0x3dc9ce64	0.09853819
46	0xbd2a8551	-0.041631047
47	0xbd684acc	-0.056711957
48	0xbd1233c2	-0.03569389
49	0x3d390b41	0.04517675
50	0xbdcbbce9	-0.09948141
51	0x3db49e8c	0.08819303
52	0xbca8969e	-0.020579632
53	0xbcc3a731	-0.023883434
54	0x3d9bb185	0.076022185
55	0x3d895d3e	0.06707238
56	0x3d499a87	0.049219634
57	0xbda28924	-0.07936314
58	0xbd06b147	-0.03288391
59	0x3d773b2f	0.060359176
60	0xbd7cea0d	-0.061746646
61	0xbd7dfd75	-0.062009294
62	0xbd724a07	-0.05915263
63	0x3db4a373	0.08820238

net.4.weight f4 [1, 64]
0	0x3e29d4c5	0.16585071
1	0xbe5ecc31	-0.2175758
2	0x3ec7fce6	0.39060134
3	0x3e809152	0.2511087
4	0x3ed6e04c	0.41968
5	0xbec6b8fe	-0.38813013
6	0x3e79d23d	0.24396606
7	0x3e830396	0.25588673
8	0xbe9cb10f	-0.30603835
9	0xbe8a118c	-0.26966512
10	0x3e2bf3d8	0.16792238
11	0xbecfe2e0	-0.4060278
12	0xbe81fdcc	-0.25388944
13	0x3eb33d1a	0.35007554
14	0xbeb7adc1	-0.3587475
15	0xbebf1a28	-0.37324643
16	0xbe7f8a8c	-0.24955195
17	0x3e7fcd9a	0.24980775
18	0xbe60c9eb	-0.21952026
19	0x3edbcbe2	0.42928988
20	0xbed0fea8	-0.40819287
21	0xbe750edd	-0.23931451
22	0xbe9b6a3f	-0.30354497
23	0xbe9c7e24	-0.30564988
24	0x3ea5db6f	0.32393977
25	0xbe5b7688	-0.21431935
26	0x3ebd41e3	0.3696433
27	0xbe9786b1	-0.2959495
28	0xbe03b5e4	-0.12862355
29	0xbeaf8236	-0.3427903
30	0xbe896146	-0.26832026
31	0xbec1fa2b	-0.37886176
32	0xbe5fb8ad	-0.21847792
33	0x3ec707e4	0.38873208
34	0xbea3fb75	-0.32027784
35	0x3ea5bfd6	0.32372922
36	0x3ead4554	0.33841956
37	0x3e85ebd9	0.261565
38	0x3e5bd86c	0.21469277
39	0xbea15e57	-0.31517288
40	0x3e7bb770	0.24581695
41	0x3e50e153	0.20398454
42	0xbe56906a	-0.20953527
43	0x3e9354b3	0.28775558
44	0xbe3a6d73	-0.18205814
45	0xbedd029f	-0.43166062
46	0x3e9986ef	0.2998576
47	0x3e4af2bb	0.19819157
48	0x3e899469	0.2687104
49	0xbeb53a6d	-0.35396138
50	0x3e373ee0	0.17895079
51	0xbe5a4274	-0.21314412
52	0x3e66a0cf	0.22522281
53	0x3ebe1ee9	0.37132958
54	0xbe9346e1	-0.28765014
55	0xbec96548	-0.39335084
56	0xbe8cb176	-0.27479142
57	0x3ebb4e5f	0.3658323
58	0x3e70cd98	0.23515928
59	0xbe7f1454	-0.24910098
60	0x3ee17681	0.44035724
61	0x3edee7c3	0.43536195
62	0x3ed90d89	0.4239314
63	0xbe7da243	-0.24768929
