mukhanov_phase2/models/drive-download-20250708T094644Z-1-001/pinn_k007.pt (torch, 20060 bytes, 5 tensors)

net.0.weight f4 [64, 1]
0.25430495 0.11238283 -0.034243725 -0.06680191 -0.23677897 -0.009232484 -0.060814966 -0.26590022
0.039135166 0.017046584 -0.12484015 0.16109061 0.09001276 0.14818615 -0.20589627 -0.2550362
0.121759705 0.118442714 -0.0060854214 -0.08141872 0.2937682 -0.07871008 -0.041076295 -0.014295192
-0.22010815 0.030223893 0.21304065 -0.068074 0.01923872 0.15681447 0.16559622 0.09411027
0.2856717 0.14292754 0.2117682 0.22303945 -0.08045931 -0.06897507 0.006101227 -0.23349231
-0.14158401 -0.21090467 -0.21332568 0.054803077 -0.20932978 -0.077756934 0.11809529 -0.047387753
0.24828984 -0.28277028 -0.19082458 0.10277185 -0.10678201 -0.073176 0.2147868 -0.22354417
-0.10625947 0.14802776 0.077784374 -0.23181036 0.06684052 -0.18069117 0.18151464 -0.01084944
00000000: 4234 823e f828 e63d 2643 0cbd 71cf 88bd
00000010: 3076 72be d843 17bc 1d19 79bd 1324 88be
00000020: 324c 203d 47a5 8b3c 31ac ffbd f0f4 243e
00000030: 9c58 b83d 1cbe 173e 79d6 52be 1b94 82be
00000040: 275d f93d 1892 f23d 3768 c7bb dcbe a6bd
00000050: c968 963e c032 a1bd 9e3f 28bd 6236 6abc
00000060: 0864 61be 1998 f73c 5427 5a3e 626a 8bbd
00000070: 859a 9d3c f993 203e 0e92 293e e3bc c03d
00000080: 9043 923e 995b 123e c3d9 583e 7464 643e
00000090: dac7 a4bd cd42 8dbd cdec c73b 9c18 6fbe
000000a0: 66fb 10be 65f7 57be 0c72 5abe 3179 603d
000000b0: 8c5a 56be 073f 9fbd f2db f13d a919 42bd
000000c0: b13f 7e3e 44c7 90be 8567 43be 0c7a d23d
000000d0: 87b0 dabd 4cdd 95bd 12f1 5b3e c3e8 64be
000000e0: 919e d9bd 9794 173e 6a4d 9f3d b25f 6dbe
000000f0: afe3 883d 1b07 39be f9de 393e d9c1 31bc

net.0.bias f4 [64]
0.011019766 0.009512496 0.009335963 0.034645163 0.019195411 0.009309561 0.034468725 0.011360054
0.0019387386 -0.015601469 0.018688535 0.011639544 0.010832471 0.00980495 0.04543188 0.013953572
-0.0008933141 0.007257131 0.0055383844 0.017636536 0.002134321 0.013319788 0.010597651 0.014334995
0.019079853 0.004566534 0.0052532423 0.016994212 0.007269811 0.0027252561 0.011706983 0.0046116957
0.004227935 0.0032406992 0.0052207187 0.0055285734 0.016096696 0.03305893 -0.006105843 0.014340515
0.010970762 0.013451366 0.025210267 0.0031984563 0.05271805 0.015386564 0.0022000992 0.018929824
0.008641448 0.007862236 0.09011704 0.0032157467 0.015804872 0.0100762015 0.005874571 0.01423663
0.029196909 0.008200196 0.0074252505 0.008185794 -0.041663934 0.010019592 -0.0065670004 0.01094878
00000000: 408c 343c 4dda 1b3c def5 183c 16e8 0d3d
00000010: b23f 9d3c 2187 183c 142f 0d3d 851f 3a3c
00000020: 461d fe3a 4e9d 7fbc b318 993c c9b3 3e3c
00000030: ad7a 313c f1a4 203c c716 3a3d 869d 643c
00000040: 4b2d 6aba 3acd ed3b 567b b53b 7f7a 903c
00000050: f7df 0b3b 3d3b 5a3c c5a1 2d3c 54dd 6a3c
00000060: 5a4d 9c3c dda2 953b 6423 ac3b 7237 8b3c
00000070: 9837 ee3b 369a 323b a5ce 3f3c b51d 973b
00000080: 7d8a 8a3b e961 543b 9012 ab3b 0929 b53b
00000090: 38dd 833c cd68 073d 8613 c8bb 7bf4 6a3c
000000a0: b6be 333c 1e63 5c3c c385 ce3c 319d 513b
000000b0: e2ee 573d ed17 7c3c 8a2f 103b b812 9b3c
000000c0: dc94 0d3c 9cd0 003c 488f b83d 47bf 523b
000000d0: 3879 813c a716 253c 797f c03b c140 693c
000000e0: 5b2e ef3c 1d5a 063c 844f f33b b51d 063c
000000f0: cda7 2abd 3729 243c fe2f d7bb 8362 333c

net.2.weight f4 [64, 64]
0.02837378 0.029928869 0.18407324 -0.01452126 0.0486086 0.031726748 0.055483926 0.10672325
-0.006949306 -0.20150226 -0.0684741 -0.19841528 -0.07130294 0.21510157 -0.098072514 0.19883479
0.07678972 -0.0074780607 0.12895799 0.19572134 -0.20208332 0.12238542 -0.12650178 -0.034121796
-0.11278143 0.14518747 0.014876799 -0.043414947 0.1534719 0.10736238 0.18986471 -0.021079239
-0.11170426 -0.11252417 -0.05435577 -0.040211357 -0.1141928 -0.14423168 -0.06361446 0.073235005
0.12590936 -0.11961145 0.20304856 -0.1589133 0.19799198 0.20011194 0.19142824 -0.13120897
-0.068089575 -0.019127436 -0.20078929 -0.16135794 -0.04115052 0.18298824 0.10281662 -0.1375625
0.054452408 -0.02935732 -0.0012355506 0.10079592 0.009328574 0.13115825 -0.1218658 0.07680719
0.113131955 -0.15766421 0.13110982 0.13332666 0.00094486616 -0.05666911 0.09291735 -0.09092014
0.1958894 0.095552854 0.07041256 0.094975546 0.06524319 -0.1794988 0.18415058 -0.07752869
-0.034084123 0.15680735 0.007263312 -0.1453498 0.08789453 -0.07675512 -0.19419074 0.175699
-0.17896408 -0.001597997 -0.065803744 0.20585793 -0.034539994 0.097842395 0.13721873 -0.033945177
0.15986234 0.033525355 -0.17016254 -0.19221751 -0.12410352 0.018117756 0.08866672 -0.15675262
-0.052577574 -0.1651098 0.15857096 -0.15226784 -0.15705246 0.044787087 0.060933683 -0.125495
0.19777693 -0.08207259 0.16958241 -0.12721519 -0.10804368 0.10834094 0.18908739 0.10788525
-0.19616823 -0.044313505 -0.065634556 -0.07819833 0.04144759 -0.15011504 0.08962455 0.047492545
0.017032579 -0.15559357 -0.1779382 0.12780161 0.14906526 0.15739751 -0.06483183 0.057079356
0.18934923 -0.20739102 0.05975115 -0.1794121 0.16995592 -0.07262379 -0.15251276 0.11263703
-0.037554942 -0.14857449 0.21987748 -0.047843248 0.09281348 0.19341592 -0.037400138 0.036665175
-0.052542392 -0.20483404 -0.19243988 -0.0042263474 0.17057039 0.11279994 -0.020975802 0.21543685
0.031001197 0.039574675 0.084014244 -0.17302169 0.06678775 -0.12443257 -0.00816381 0.014398894
-0.073981464 -0.0017118059 0.14977762 -0.0368574 -0.20886098 -0.08139081 0.0611969 -0.022770053
-0.120700106 -0.005626857 -0.08570281 0.14867201 -0.16336371 -0.1165354 -0.20112346 0.0580938
0.05583364 0.2044736 -0.041377198 -0.09536443 -0.0222725 -0.065968506 -0.13775848 0.10762202
-0.09223543 0.025762329 -0.18388765 -0.010564769 -0.09183379 0.026511338 0.01737021 -0.085619226
0.018985294 0.18257682 0.028084954 0.07003093 0.17515318 0.09909674 -0.14767028 -0.19074811
0.15434575 -0.11956493 0.1587781 0.16352245 0.076763 0.1601406 0.12605391 0.12679745
0.025009368 -0.17935975 0.13222808 -0.08961505 -0.015513128 0.0851642 -0.090532295 -0.20647208
-0.092169955 0.0033426834 -0.18779258 -0.09092246 0.19514927 0.14804216 0.18975265 0.11249936
-0.13325666 0.011414424 0.0051476085 -0.1029333 0.06568531 -0.2142781 -0.040588934 -0.0092145
0.16629146 -0.19226797 -0.091062054 -0.027665965 0.11683702 0.16771556 -0.15638699 0.06403167
-0.033240054 -0.20253097 0.10769395 -0.022339594 -0.12160353 -0.16630888 -0.017136453 0.030211043
00000000: 2170 e83c 632d f53c b27d 3c3e 94ea 6dbc
00000010: d019 473d e8f3 013d 1d43 633d b891 da3d
00000020: 01b7 e3bb 9c56 4ebe 263c 8cbd 602d 4bbe
00000030: 4707 92bd 9643 5c3e 3eda c8bd 599b 4b3e
00000040: ee43 9d3d 850a f5bb 900d 043e 2d6b 483e
00000050: eeee 4ebe 35a5 fa3d af89 01be 4cc3 0bbd
00000060: f3f9 e6bd 06ac 143e d1bd 733c dfd3 31bd
00000070: bd27 1d3e cfe0 db3d e56b 423e 5eae acbc
00000080: 34c5 e4bd 1273 e6bd 28a4 5ebd aab4 24bd
00000090: eadd e9bd 78b1 13be 4c48 82bd 3cfc 953d
000000a0: 62ee 003e d9f6 f4bd f6eb 4f3e 2bba 22be
000000b0: 69be 4a3e 25ea 4c3e c405 443e a55b 06be
000000c0: 8c72 8bbd 24b1 9cbc b59b 4dbe 043b 25be
000000d0: 738d 28bd 4561 3b3e 8591 d23d 2fdd 0cbe
000000e0: 7d09 5f3d c37e f0bc 33f2 a1ba 176e ce3d
000000f0: e0d6 183c 594e 063e c794 f9bd 174d 9d3d
00000100: bab1 e73d ba72 21be a741 063e c986 083e
00000110: e5b0 773a de1d 68bd 744b be3d 5734 babd
00000120: 3b97 483e 37b1 c33d 7634 903d 8a82 c23d
00000130: 399e 853d 89ce 37be f891 3c3e 5dc7 9ebd
00000140: cb9b 0bbd 1b92 203e 1401 ee3b 94d6 14be
00000150: 0c02 b43d ca31 9dbd f0d9 46be 70ea 333e
00000160: 5c42 37be e273 d1ba 1dc4 86bd 6ccc 523e
00000170: cf79 0dbd 9861 c83d 1183 0c3e 190a 0bbd
00000180: f4b2 233e e251 093d 173f 2ebe abd4 44be
00000190: fc29 febd b06b 943c e696 b53d c283 20be
000001a0: 955b 57bd 8b12 29be 6d60 223e 1aec 1bbe
000001b0: 5cd2 20be aa72 373d 9995 793d c381 00be
000001c0: 0986 4a3e ad15 a8bd 03a7 2d3e b344 02be
000001d0: 0146 ddbd dbe1 dd3d 20a0 413e f1f2 dc3d
000001e0: 53e0 48be 1482 35bd 696b 86bd 7226 a0bd
000001f0: f3c4 293d c2b7 19be 138d b73d 8b87 423d
00000200: e887 8b3c ec53 1fbe 6e35 36be 6dde 023e
00000210: 90a4 183e d02c 213e 8dc6 84bd 0bcc 693d
00000220: c4e4 413e 505e 54be 9fbd 743d ceb7 37be
00000230: ed08 2e3e c8bb 94bd 4e2c 1cbe 3eae e63d
00000240: 36d3 19bd e923 18be 9027 613e 48f7 43bd
00000250: fe14 be3d d30e 463e e330 19bd 392e 163d
00000260: b136 57bd 04c0 51be f60e 45be 2c7d 8abb
00000270: 01aa 2e3e a803 e73d 72d5 abbc 7a9b 5c3e
00000280: 39f6 fd3c 0e19 223d a90f ac3d 992c 31be
00000290: 04c8 883d 81d6 febd 80c1 05bc 57e9 6b3c
000002a0: 9883 97bd ad5e e0ba 4e5f 193e c9f7 16bd
000002b0: a7df 55be 3ab0 a6bd 9aa9 7a3d 4388 babc
000002c0: 9e31 f7bd 7f61 b8bb f484 afbd 7a3d 183e
000002d0: d148 27be 1daa eebd 4ff3 4dbe c4f3 6d3d
000002e0: d1b1 643d 8761 513e 237b 29bd 6d4e c3bd
000002f0: d174 b6bc 7f1a 87bd 8f10 0dbe ef68 dc3d
00000300: eee5 bcbd 850b d33c 0b4d 3cbe da17 2dbc
00000310: 5b13 bcbd 4e2e d93c f84b 8e3c 2259 afbd
00000320: 0c87 9b3c 6bf5 3a3e 6b12 e63c 606c 8f3d
00000330: 5b5b 333e 3bf3 ca3d e136 17be 7953 43be
00000340: d00c 1e3e 75de f4bd ba96 223e 6e72 273e
00000350: eb35 9d3d e6fb 233e 4714 013e 31d7 013e
00000360: 72e0 cc3c 15aa 37be cc66 073e 1888 b7bd
00000370: c62a 7ebc 916a ae3d ff68 b9bd 6b6d 53be
00000380: 9ac3 bcbd ec10 5b3b b34c 40be 8e35 babd
00000390: 36d5 473e 5d98 173e 854e 423e 1166 e63d
000003a0: 6f74 08be 9003 3b3c 45ad a83b b2ce d2bd
000003b0: 0586 863d b86b 5bbe 9540 26bd 6af8 16bc
000003c0: 4f48 2a3e e5e1 44be be7e babd bca3 e2bc
000003d0: 3f48 ef3d a1bd 2b3e e923 20be 0923 833d
000003e0: b926 08bd 4764 4fbe a58e dc3d 8601 b7bc
000003f0: 460b f9bd e04c 2abe bf61 8cbc 267d f73c

net.2.bias f4 [64]
0.013555353 0.013357539 0.011158843 0.010771999 0.009167614 0.011466754 0.0110233845 0.012122719
0.0076811193 0.009868899 0.0072478326 0.008706344 0.008493858 0.012954956 0.010935214 0.010376037
0.008251424 0.008499449 0.0072160168 0.008968512 0.011174063 0.0025903569 0.006468547 0.009059624
0.011173755 0.011386735 0.0005551761 0.006827904 0.0048972955 0.010681623 0.007990952 0.009898016
0.008924853 0.011942933 0.008533741 0.010937424 0.009059072 0.00854222 0.008624694 0.010914928
0.007654298 0.011494147 0.007437354 0.008764404 0.010836392 0.010181331 0.008968757 0.00878541
0.008355847 0.011579533 0.008713135 0.009220145 0.011820315 0.010236584 0.008402113 0.008431164
0.00653576 0.009151133 0.008927979 0.00873708 0.011195276 0.008902751 0.008706918 0.00966477
00000000: 4517 5e3c 94d9 5a3c 94d3 363c 0a7d 303c
00000010: c333 163c 0ddf 3b3c 6d9b 343c 5e9e 463c
00000020: e6b1 fb3b 2ab1 213c 3a7f ed3b 0ea5 0e3c
00000030: d329 0b3c 0641 543c 9d29 333c 4100 2a3c
00000040: fb30 073c 4641 0b3c 5674 ec3b aaf0 123c
00000050: 6b13 373c fac2 293b 1bf6 d33b d16e 143c
00000060: 2012 373c 6e8f 3a3c 3d89 113a 9cbc df3b
00000070: 7e79 a03b f901 2f3c 7bec 023c 4a2b 223c
00000080: 8c39 123c 4bac 433c 1bd1 0b3c e232 333c
00000090: 806c 143c abf4 0b3c 974e 0d3c 87d4 323c
000000a0: e8d0 fa3b f251 3c3c 0cb5 f33b 9398 0f3c
000000b0: 1f8b 313c 99cf 263c b2f1 123c aef0 0f3c
000000c0: f6e6 083c 15b8 3d3c 89c1 0e3c 1710 173c
000000d0: ffa9 413c 58b7 273c 04a9 093c dd22 0a3c
000000e0: ee29 d63b a2ee 153c a846 123c f825 0f3c
000000f0: 646c 373c d8dc 113c 76a7 0e3c fc58 1e3c

net.4.weight f4 [1, 64]
-0.03419379 -0.045354996 -0.24736905 -0.11279008 0.27605414 -0.1336402 -0.07473883 -0.039743718
-0.007020785 -0.0135850785 0.019601908 0.17110793 0.07368414 -0.25639185 -0.036045104 -0.07399655
0.20164701 0.18944971 0.22800389 0.00076629606 -0.15241536 0.010833803 0.20286073 0.14020368
-0.1908117 -0.20225216 0.0020833965 0.24815722 0.027980007 -0.13507274 0.14204592 0.00013985885
0.19454202 -0.1804683 0.17688088 -0.15371446 0.15840049 0.12505883 0.09129352 -0.20694721
-0.007987438 -0.07096819 0.17343718 0.20899077 -0.24431658 0.022723874 0.19889627 0.12257655
-0.0063816416 -0.05987426 0.053055767 0.18400633 -0.19848223 0.026301747 0.23350376 0.043937
0.19772013 0.03676724 0.24146153 0.10736045 -0.28932628 0.17717905 0.110031046 0.04042903
00000000: ca0e 0cbd 29c6 39bd 504e 7dbe 7cfe e6bd
00000010: f856 8d3e fad8 08be ac10 99bd 4fca 22bd
00000020: 9d0e e6bb f393 5ebc 2e94 a03c eb36 2f3e
00000030: b6e7 963d cb45 83be 08a4 13bd 818b 97bd
00000040: 8e7c 4e3e 1bff 413e da79 693e 42e1 483a
00000050: c612 1cbe 4380 313c b9ba 4f3e 8e91 0f3e
00000060: 2464 43be 311b 4fbe 9889 083b ed1c 7e3e
00000070: 5436 e53c 8250 0abe 7c74 113e 13a7 1239
00000080: 0636 473e afcc 38be 4320 353e 5367 1dbe
00000090: bd33 223e 6c0f 003e 19f8 ba3d f8e9 53be
000000a0: bedd 02bc c557 91bd 8499 313e ad01 563e
000000b0: 202e 7abe 6b27 ba3c 77ab 4b3e 6a09 fb3d
000000c0: 171d d1bb b63e 75bd 0151 593d 286c 3c3e
000000d0: ed3e 4bbe c376 d73c 9c1b 6f3e 49f7 333d
000000e0: 2577 4a3e 3f99 163d b141 773e ccdf db3d
000000f0: 9322 94be 6d6e 353e f557 e13d e998 253d
